net_data_all_0228_1.pkl (torch, 243062 bytes, 32 tensors)

weight f4 [64, 1, 3]
00000000: a6b0 9a3e 1c4f 10c1 c3e9 64be 21d8 81bf
00000010: 7928 b5be 9ee8 d1bf 2de2 a83f 8572 9e3d
00000020: 8e55 97bf 4cf9 30bf 7848 ab3f 2c90 c9bf
00000030: f462 003f 244a 8b3e 0fc4 a8bf 6fa2 8b3e
00000040: 8dbb 11c1 7518 58be 0637 443d 4a4f fa3e
00000050: e478 7fc0 e5cf 333e 3c7c 4c3e 0730 85bf
00000060: 0358 e4bf 3803 3cbf cf92 debe 1b6d 963f
00000070: c222 7fbf c638 a33e 1a13 b5c0 0827 313e
00000080: 0ce4 b3be 32b5 633f e02f 44bf 8ab9 2fbf
00000090: 1431 1fbe 12bf e740 05c7 1ebd 32eb c63e
000000a0: a8ee 3d3e 3a9d 8dbf dab9 a93d 537e 0dbf
000000b0: 4a7a b2c0 66ce e93f 833e 7ebf 51c7 54be
000000c0: 7401 4b3f a36b 4abd 9029 2fbf 11f3 23bf
000000d0: 3359 5a40 1e9c 6cbe ab23 863c 32e9 023d
000000e0: f7fe 49c1 b2b6 a93e aa28 8fc0 0927 f8bc
000000f0: cc0b 5e3d 2106 3740 f612 78bf 4f40 e33e
00000100: b73f 303e 66dd 8fbf fcf6 0a3f 317f 1b3e
00000110: 078f 80bf 17fa 53be f13e 8a40 9e3b 13bf
00000120: 5b36 35c0 698f f5be ba9e afbe 454e 313e
00000130: 119f c43e c25e e5bf f08f 7ac0 9e91 32be
00000140: 167c 54bd 06d5 93be 5438 b040 2b1c 05bd
00000150: 1381 73bf 9b42 a6bb 0180 5e3f 21b3 433e
00000160: 3f0f e2bf 654e a53f 3ad3 b9bd df75 bb40
00000170: 6032 0cbe 4c4a c1bf a94a 6c3f d937 d6bf
00000180: 9b8c 373f 6982 073f 626f b8bf 29c2 90be
00000190: 800f b340 bc40 07bd 37f0 73bf f47e 4cbe
000001a0: 99e9 af3f ea75 db3e 6eab 9c3f 2448 d8bf
000001b0: 3487 21be abd8 8bbf f2f4 883f d821 20be
000001c0: 7ad9 ea40 04f9 55bd 6d38 14bf 90d3 7bbf
000001d0: 859e ce3f 828b dbbf 9135 dc3e b5fe a13e
000001e0: 9f79 4ac0 1541 d6be 99cb 06bf 7b88 253f
000001f0: faa2 c0ba 5bed 83bf 3b43 083d 85c2 1cbf
00000200: ba66 b0c0 2d08 86be 1b8a 90bf cc0b 3bc0
00000210: 7e2c cfbd 0dec cabf e581 683f 9b4c 69bf
00000220: 0962 2cbe 91cc 953f a5e1 b4bf fc09 debe
00000230: 031a 6b3c 60c9 4ebe 4c52 a040 7f3c 1cbe
00000240: ef69 b43e 2f17 523e 9e9d a9bf 4224 e33c
00000250: eb0d aabf 2a4e a93f 15ed fabf 3617 fe3e
00000260: ed2d 1e3f 9b24 48be 1047 acbe 0809 98c0
00000270: b418 893d b5b8 5ebf a211 f03f 0e82 0cbe
00000280: 9c41 c8bf c2bc 793f ffdb eebf 4432 04bf
00000290: 4972 cfbe 90c2 91bf fb4a 733e e72c f53e
000002a0: 8831 38be c6df c2be ec62 98c0 0a85 09be
000002b0: 7a96 3ebf a296 83c0 d961 1c3d fa7c 2dbf
000002c0: a883 a2c0 40ab 90bf e499 3c40 9a7e 31bf
000002d0: 05df 16c0 6e79 36be 952b ebbe f131 3a3f
000002e0: 83b2 3bbf 2ca3 f9be a932 2abe 78f8 d340
000002f0: c3a0 43bd 4a16 38be 2a10 e440 f44b 10bd
0.30212897 -9.019314 -0.22354798 -1.0144082 -0.3538244 -1.6399114 1.3194023 0.077366866
-1.1822984 -0.69130397 1.3381491 -1.5747123 0.5015099 0.27205002 -1.3184832 0.27272364
-9.108289 -0.2110308 0.047904037 0.48888618 -3.9917536 0.17559774 0.19969267 -1.0405282
-1.7839359 -0.7344241 -0.4347138 1.1752046 -0.9966241 0.31879252 -5.6585817 0.17300045
-0.35134923 0.8894836 -0.7663555 -0.68642485 -0.15546066 7.242074 -0.03876402 0.38851315
0.18548071 -1.1063607 0.082874015 -0.5527088 -5.577428 1.8266113 -0.99314135 -0.20779158
0.7929909 -0.049419057 -0.68422794 -0.64042765 3.4116943 -0.23106429 0.01637443 0.031960674
-12.624747 0.33147198 -4.473714 -0.03029205 0.05421047 2.859749 -0.9690393 0.44385
0.17211805 -1.123944 0.5428312 0.15185238 -1.0043648 -0.2070087 4.3201833 -0.57512844
-2.8314426 -0.47960976 -0.34300786 0.17315014 0.38402608 -1.7919543 -3.9150352 -0.17438361
-0.05187615 -0.2887346 5.506876 -0.032497566 -0.95118827 -0.005073858 0.8691407 0.19111301
-1.7660903 1.2914549 -0.090734914 5.8581386 -0.13691092 -1.5100799 0.9230142 -1.6735793
0.7169892 0.52933365 -1.4408991 -0.28273132 5.595642 -0.03302072 -0.95288414 -0.19970304
1.3743163 0.428634 1.2239816 -1.6897016 -0.15774232 -1.0925497 1.0699751 -0.1563791
7.3390474 -0.052239433 -0.578986 -0.98369694 1.6142126 -1.715195 0.43009618 0.3163964
-3.1636732 -0.4184653 -0.52654415 0.6466138 -0.0014697008 -1.030681 0.03326724 -0.61234313
-5.51254 -0.26178113 -1.1292146 -2.922595 -0.10115908 -1.5853287 0.90823203 -0.91132516
-0.16834272 1.1703054 -1.4131361 -0.43366992 0.014349463 -0.20194006 5.010046 -0.15257452
0.3523707 0.20516656 -1.3251226 0.02772725 -1.3285497 1.3226979 -1.9603602 0.49627084
0.6178883 -0.19545214 -0.33647966 -4.7511024 0.06694165 -0.8700059 1.8755381 -0.13721487
-1.5645022 0.97553647 -1.8660887 -0.516392 -0.4051688 -1.1387501 0.23759072 0.4788582
-0.17987645 -0.3806135 -4.7620754 -0.13429657 -0.7444836 -4.112138 0.038179252 -0.67768824
-5.0785713 -1.1302261 2.9468927 -0.69333804 -2.357362 -0.17819759 -0.45931688 0.72732455
-0.7331926 -0.48757303 -0.16620888 6.6240807 -0.047760736 -0.17977253 7.126973 -0.035228685

bias f4 [64]
00000000: a0dc f13e 4585 efbd be7c 6f3e 8557 05bf
00000010: 5e40 f33d c795 ad3e 50c5 09bf 21bf a43e
00000020: aea2 073f c008 e5be 9f60 04be d3b1 1bbd
00000030: d268 c03e 4f4a f43c 8f7d 9dbe d24f ea3e
00000040: fed5 c4bd 8c60 59bc ca47 dc3c 973e 10be
00000050: 88ac afbe a8a0 d8be 2a31 88be 7f62 0c3f
00000060: 3649 b93e 556b 853e a81b 75be a2b3 73be
00000070: 2882 d03e c46c 753e 078a 0d3e b375 2ebd
00000080: 4261 d73e ba0e d4be 5cdd 893e 9412 ea3d
00000090: 32c8 08bb c5d4 2cbe 27cf fa3e eab5 acbe
000000a0: 4bf8 3b3e 24c6 f4be f9f2 ca3e 7033 edbd
000000b0: 6e9c 5d3c a8d5 d6be 2c45 853e 1eec fbbd
000000c0: 0f70 b43d 793d 39bd 23f8 d3be 5b13 7ebc
000000d0: b62a d13e a8e0 c63e 3a28 fcbe 1ee2 01bf
000000e0: b900 bc3d cdd0 81bc cd98 163e 1ed3 e93e
000000f0: 984d 48be c45f 1dbe b7f5 07bf 41e1 42bd
0.47238636 -0.11695341 0.23387429 -0.5208667 0.118775114 0.33903334 -0.538167 0.3217707
0.52982605 -0.44733238 -0.12927483 -0.038011383 0.37579972 0.02982059 -0.30759856 0.45764023
-0.09611128 -0.0132676475 0.0268897 -0.14086376 -0.34311318 -0.4231007 -0.2660001 0.54837793
0.36188668 0.2605845 -0.23936331 -0.23798993 0.407243 0.23967272 0.13822185 -0.042592715
0.4206639 -0.41417485 0.26926696 0.11429325 -0.0020871279 -0.1687804 0.4898617 -0.3373254
0.18356435 -0.4780742 0.39638498 -0.115820765 0.013526065 -0.41959882 0.26029336 -0.12300895
0.08810436 -0.04522464 -0.4140025 -0.015507544 0.40852898 0.38843274 -0.4924944 -0.5073565
0.09179825 -0.015846634 0.14706726 0.45668882 -0.1956085 -0.15368563 -0.53109306 -0.0475781

weight f4 [64]
00000000: a964 2540 f4ec 1040 062d 43bc ae61 c73f
00000010: 8c4e 6f3d 9c27 5040 58d7 c13f 1ec0 803e
00000020: abbd 443c 8a21 9b3d a6a8 6840 84b5 01be
00000030: 7b15 fc40 0ccc 313e 48e2 3a40 cca7 e3bc
00000040: 6ce9 63bd 0850 6b40 7237 2040 6843 213e
00000050: 0e65 2540 fa72 933d 164a 863d d498 e33f
00000060: 6067 5340 d498 be3d 1b93 2a40 7c84 b740
00000070: de50 6c3c 47c5 593f 4a34 503e 4c48 5e3f
00000080: fd0b 27bc 5a26 b740 def3 24bd 295c 403c
00000090: 08f6 76bd 34f7 0141 bdc0 70bd ec11 e23d
000000a0: 18a0 5a40 9c06 aa3c 93d1 5540 dd5d 733f
000000b0: ba26 363f cb94 f5bb b3b4 1c3d 1df9 9240
000000c0: dbab d03d 9c06 c13f d180 a43d bdef a93f
000000d0: 2432 ca3b 67cb 303f e56a af3c acc8 af3d
000000e0: b0ab d93f f32a 2140 c4a4 5140 ce56 6640
000000f0: 4d0c adbb 407d 86bc 4cd7 ef40 718b d440
2.5842688 2.2644625 -0.01191259 1.5576684 0.058424518 3.2524176 1.5143843 0.25146574
0.012008111 0.075747564 3.6352935 -0.12666899 7.877622 0.17362994 2.920061 -0.027789973
-0.05564253 3.6767597 2.503384 0.1574837 2.584293 0.071996644 0.065570995 1.7781014
3.3031845 0.093064934 2.6652286 5.7349224 0.014423577 0.85066646 0.20332447 0.86829066
-0.010195729 5.7234316 -0.040271632 0.011740723 -0.060293227 8.122852 -0.05877756 0.110385746
3.4160213 0.020755105 3.3409164 0.950651 0.7115284 -0.007494544 0.038258266 4.5929093
0.10189029 1.5080142 0.08032382 1.3276287 0.006170528 0.6906037 0.021413276 0.08583197
1.700552 2.5182464 3.2756815 3.5990481 -0.0052810074 -0.016417146 7.4950314 6.6420217

bias f4 [64]
00000000: 0a7b a53f 2228 f9be 925c 85c0 b75e 8bbf
00000010: bf09 0ac1 cb8b a43f 3af2 06bf 6a36 12c1
00000020: 83ff c2c0 aa2d 0ac1 b713 ac3d 25c2 0ac1
00000030: e107 8940 6544 10c1 ad5c d23e b3ec b6c0
00000040: 3050 0dc1 15a5 a23d 9b84 723e b947 d4c0
00000050: 8c76 19bf b7e9 0ac1 b8b9 0bc1 fb28 3a3f
00000060: 7c55 b73c 59ea 0bc1 bff3 dbbe 5e21 5740
00000070: f280 0ac1 79c7 acbf 4a13 f5c0 55e1 e0bf
00000080: 711b d1c0 3475 5240 14cd 06c1 3e33 72c0
00000090: a4b2 02c1 83c9 8c40 d46a e3c0 a8bd fcc0
000000a0: 1ce5 08be 2f6b 0ec1 ad5e 163f 7bc2 16bf
000000b0: bfe3 4bc0 416a 06c1 c30a 04c1 7030 3540
000000c0: 1612 0dc1 405b 71bf 65d7 e2c0 a80b a0be
000000d0: c789 90c0 65d6 3cc0 3f2e d2c0 84d3 05c1
000000e0: 77bc 55be c25e 8e3e 4201 183f 47c7 43bf
000000f0: cb1c 99c0 7327 10c1 c643 7f40 f671 7e40
1.2928174 -0.4866343 -4.16755 -1.088828 -8.627379 1.2855161 -0.5271336 -9.138285
-6.0936904 -8.636148 0.08402198 -8.672399 4.282212 -9.016698 0.4108633 -5.716394
-8.832077 0.07941643 0.23683397 -6.633755 -0.59946513 -8.682059 -8.7328415 0.7271878
0.02237963 -8.744714 -0.429594 3.3614116 -8.656481 -1.3498374 -7.6586046 -1.7568766
-6.5346 3.2884035 -8.425068 -3.7843776 -8.168613 4.3995986 -7.1067905 -7.8981514
-0.13368648 -8.901168 0.58738214 -0.58890504 -3.1857755 -8.400941 -8.252627 2.8310814
-8.8169155 -0.9427986 -7.0887933 -0.31258893 -4.5168185 -2.9505856 -6.5681453 -8.36414
-0.20872675 0.2780667 0.5937692 -0.7647595 -4.784765 -9.009631 3.9885116 3.9757056

running_mean f4 [64]
00000000: 2f47 0944 76a7 0143 8631 21c1 af6f 1541
00000010: 1f27 8441 72ca 0a44 8d26 0243 1da8 b941
00000020: ff01 0843 7600 dbbe 0c8c 6a43 7bc7 1942
00000030: c7b2 d9c3 ccad 8d41 1c61 8043 9b9e 99c0
00000040: 0fab d2bf dc94 2dc3 c93f ff43 e192 8243
00000050: 2e1d 0bc3 9a57 8441 7493 1041 35e3 68c3
00000060: 9052 1f43 b0dc 2942 e897 2c43 5b54 a2c3
00000070: be6c 8840 94ce 3e42 9c8f aec3 67de 9142
00000080: 0126 2ac0 c63f a5c3 6b46 8cc0 00ae bbc1
00000090: d87b ee41 ada6 dcc3 d073 9641 54c2 f341
000000a0: 1464 3043 06e2 7041 6d42 8243 4984 4643
000000b0: 86ae 7f42 b16a d8be eae3 a742 716d 92c3
000000c0: d596 d741 9b68 cf41 0996 c041 62c1 5d43
000000d0: 1e61 c9c1 f84f 7742 2998 f742 9f1b 3f41
000000e0: 3b5c 6043 9a31 5a43 8570 7643 3701 d3c2
000000f0: f53c fb42 8541 0b42 82da c6c3 1af6 d5c3
549.11224 129.65414 -10.074591 9.3397665 16.519102 555.1632 130.15059 23.207087
136.0078 -0.4277379 234.54706 38.444805 -435.3967 17.709862 256.75867 -4.800611
-1.6458453 -173.58148 510.49832 261.1475 -139.11398 16.542774 9.035999 -232.88753
159.32251 42.465515 172.59338 -324.65903 4.263274 47.701736 -349.12195 72.93438
-2.6585696 -330.49823 -4.383596 -23.45996 29.81047 -441.30215 18.80655 30.469887
176.39093 15.0551815 260.51895 198.51674 63.920433 -0.422689 83.945145 -292.855
26.948648 25.926077 24.07326 221.7554 -25.17242 61.828094 123.79719 11.944243
224.36028 218.19376 246.43953 -105.50237 125.61906 34.813984 -397.7071 -427.92267

running_var f4 [64]
00000000: 03ac 2246 fc10 0745 0729 8045 6d01 f244
00000010: 6db3 1145 f068 2546 f042 6546 3371 9044
00000020: da8b 2345 8862 8f44 1029 da46 5e3d d744
00000030: 58bc cc45 d5a9 c644 5904 e246 cb67 5a45
00000040: 1e24 b344 2571 d044 2c65 0e48 37bb 2145
00000050: baf8 dc44 e835 d744 701c ca44 7aa7 1745
00000060: 0a21 d445 9c35 4745 5d08 5a46 aeec 6e45
00000070: 21b0 0745 7c8a c944 d2fb 8445 1f4f 2645
00000080: c7e0 4645 cf73 7645 a1eb 5f45 5c8f 5645
00000090: 9068 a144 7f13 d245 4ad2 5845 3156 4a45
000000a0: 4769 0046 4cbf ea44 9d58 db46 91d0 ed45
000000b0: f4a6 8544 7107 3245 88d8 ec44 d3b9 4245
000000c0: 68d1 0145 b354 d344 1ed9 9745 7a93 9c46
000000d0: ee8a 4245 4fb1 9744 673f 3145 c9ac e544
000000e0: d2c4 9d46 cb39 6e46 e6c4 ba46 31d9 eb44
000000f0: 631e 8c45 44ed 8344 a536 ab45 9164 c645
10411.003 2161.0615 4101.1284 1936.0446 2331.214 10586.234 14672.734 1155.5375
2616.7407 1147.0791 27924.531 1721.9177 6551.543 1589.3073 28930.174 3494.487
1433.1287 1667.5358 145812.69 2587.701 1767.7727 1721.6846 1616.8887 2426.4673
6788.13 3187.3506 13954.091 3822.7925 2171.008 1612.3276 4255.4775 2660.945
3182.0486 3943.238 3582.7268 3432.96 1291.2676 6722.437 3469.143 3237.387
8218.319 1877.978 28076.307 7610.071 1069.2173 2848.465 1894.7666 3115.614
2077.088 1690.6469 4859.1396 20041.738 3112.683 1213.5409 2835.9626 1837.3995
20194.41 15246.448 23906.45 1886.7872 4483.7983 1055.4146 5478.8306 6348.571

weight f4 [128, 64, 3]
00000000: a378 ee3f bb74 aabf a1c2 c0bd 62fb 6e3f
00000010: 2862 3a3f 0708 22bd 5276 25bf b210 b5be
00000020: ca89 563f a1cd bebf 22f6 d13f 4436 d93f
00000030: f69d 16bf 9736 94be ada4 253e 35c1 0140
00000040: 08f4 b7bf 23ec 69be 21fe 1bbf 7112 643e
00000050: 9d59 c33f cc3c cdbe bebe 48bd 5770 483e
00000060: f42f 683f fb55 ddbe eaad df3e cebc 883d
00000070: 84b8 0abf c602 343e 205d e63e f52f 8e3f
00000080: 5a11 89bf 6a28 c4be 74b5 06bf 2eea 203e
00000090: 2232 ad3f f5c4 2bc0 8a35 89bf 8064 5cbf
000000a0: c4f3 86be 5c32 8e3d 653a 2abf 8ab1 993c
000000b0: c4fc a43f 148c 03bf bcf9 b0be 9991 e83e
000000c0: 0f6d 2bbf 2be2 e2be 6668 363e fbcf 5dbe
000000d0: ed44 fabf 4abe 8fbf 5717 32bf 7af5 703e
000000e0: afb3 bf3f 8841 ca3e 5f6c a4bf 5b25 033f
000000f0: 8c9e 353e a432 ed3e 866e a83f 0962 1fbf
00000100: e517 ccbe 0112 013d 6521 40bf 6539 6dbe
00000110: 24a1 e43d f7e3 bbbe 54a2 dabe bd75 b43e
00000120: f1e7 a93f 1830 ca3f 966e 37bf 3d48 dcbe
00000130: 6df0 ffbe a981 aa3d 09cc fe3f 4165 c73f
00000140: ef9f 49bf 0bac 363f e12b 2ac0 6727 6ebf
00000150: ca40 54bf 2906 b0be 40cf 663e fca0 2340
00000160: 31d3 09c0 67ce 603f 1988 70bf 6ded 053f
00000170: dc87 c23e 6b0d 11bf db28 f73f d933 adbe
00000180: c30a 49bf 3881 e2bd d327 233f 44e1 4a3f
00000190: 0134 27c0 9f85 50bf bf2a 80bf c581 abbe
000001a0: 06e5 903e 2854 15bf 4fba 39be 52fe 8e3f
000001b0: 6c2f af3e eb94 903e 7a07 933e 8d0f ae3f
000001c0: 0de0 33c0 7347 8bbf ae91 023f 9233 263f
000001d0: f498 b03e 8720 65be f7c7 b2bd b3c4 913e
000001e0: 9e28 8c3f 7e3f cf3f 54c0 19bf 1440 0abf
000001f0: 3b4d cfbe e666 ac3d 5b62 35bf 7d31 383d
00000200: caa1 9e3f 4d03 54bf 64ea 94be 7149 823f
00000210: fdf7 a03f 758d 0ac0 de21 6a3f 665f 81bf
00000220: 9bd7 b0be b3ef 933e 872b a93e e3fc 3cbe
00000230: 9312 9d3e e8bc 063f 535e eebf 370f f2be
00000240: 53bf e9be 9bae cabe 542d 033e 9d17 2240
00000250: 0a74 07c0 252d 633f 4dd1 95be 5976 62be
00000260: d1e2 db3e 743b 66bf d991 a43d 1b91 9b3f
00000270: 77b9 c13f 90b3 cb3e 6206 1c3f 951f d63f
00000280: 2ddd ebbf ac8d 5a3f 7c4a 463f 1590 b7be
00000290: 5e07 e63e 759b 1dbf adf2 b6be cecb 8f3e
000002a0: ba57 7bbf 9529 d13d 9ec1 a73f 3a6a 5ebf
000002b0: 01f7 243d ea11 8d3f 7e6b 3fbf 239b 493d
000002c0: 24df 933f 9a39 14bf 183a 05bf adf4 9dbf
000002d0: 88db 693f 6877 2bbf f537 073f 156d 17be
000002e0: 04f5 d5be b5ba 9dba 5e6f a63f fc58 21c0
000002f0: cfbd 7fbf a9c6 903f 293b 0dc0 42db 38bf
00000300: f1c5 d23f 75db ac3f 50ad 34c0 41f8 603f
00000310: 4c09 483e c7dc b03f 5b11 bd3f 90d5 273f
00000320: b263 b7bc 8bdd cfbf 3803 ccbf e21b 80bd
00000330: 0daa 3d3f 7c80 47be 0115 f3be 01ba d33f
00000340: 456a ac3f 1b8a 44c0 d5a3 373f f4b1 f1bf
00000350: d468 ff3e aa25 8c3e 7b14 06bf 12bf 57bf
00000360: 5e9a 0640 67cf 7a3f 3a54 dbbe 031d a13f
00000370: ced7 883e f19f 2ebf d5e3 e3be d3ca 8c3f
00000380: 5898 773e daa7 433f dfcd 573f 8e92 02bf
00000390: bbd7 8cbf 7158 3fbf adbc b43f d8e4 d13e
000003a0: bb30 b6be 64b9 43bf ae5a 023f 514a d4bf
000003b0: f9b0 543f aa4f bd3f e1fc 5e3f b731 42be
000003c0: d206 eb3e e7dd 703e e542 3fbf 31e0 b63e
000003d0: b463 c2be 984a 1b3f 774a e93e d204 d0bf
000003e0: c420 313f 8910 fa3f c7ef 4b3f c7c1 03bf
000003f0: 8e99 a1be 265a 31c0 f49e 0bc0 2c3d 2c3f
1.8630565 -1.3316873 -0.094121225 0.9335233 0.72806025 -0.039558437 -0.6463367 -0.353643
0.83804 -1.4906503 1.6403239 1.6969686 -0.5883478 -0.289479 0.161761 2.0274174
-1.4371347 -0.22843985 -0.60934645 0.2227266 1.5261723 -0.40085447 -0.04901003 0.19574104
0.9069817 -0.4322966 0.43687373 0.06676637 -0.541878 0.17579183 0.44992924 1.1108385
-1.070842 -0.38312083 -0.52620625 0.15714332 1.3530924 -2.6838963 -1.0719464 -0.8609085
-0.26357853 0.06943199 -0.66495353 0.018761415 1.2889638 -0.5138562 -0.34565532 0.45423582
-0.66963285 -0.44313177 0.17813262 -0.2166137 -1.9552284 -1.1229947 -0.69566864 0.23531142
1.497671 0.3950312 -1.2845572 0.51228875 0.17736262 0.46327698 1.3158729 -0.62258965
-0.3986198 0.03151131 -0.75050956 -0.23166426 0.11163548 -0.3669736 -0.42701972 0.35246077
1.3273908 1.5795927 -0.71653116 -0.43023863 -0.49988118 0.08325512 1.9906017 1.5577775
-0.78759664 0.71356267 -2.6589282 -0.93028873 -0.8291136 -0.343797 0.22539997 2.5567007
-2.153515 0.87814945 -0.9395767 0.5231541 0.37994277 -0.566611 1.9309343 -0.3382862
-0.78532046 -0.11059803 0.6373264 0.7924998 -2.612549 -0.8145389 -1.0013045 -0.33497444
0.2829973 -0.5833154 -0.18137477 1.1171362 0.34215868 0.28238615 0.28716642 1.3598496
-2.81055 -1.088118 0.5100354 0.6492244 0.34491694 -0.2237569 -0.087295465 0.28470382
1.0949895 1.6191251 -0.60059094 -0.54004025 -0.4048861 0.08418064 -0.70853204 0.04496907
1.2393124 -0.82817537 -0.29085076 1.0178663 1.257568 -2.1648839 0.9145793 -1.0107238
-0.34539494 0.28893813 0.3304102 -0.18455844 0.30678234 0.52632 -1.8622535 -0.47277233
-0.4565378 -0.39586338 0.1281026 2.5326912 -2.1164575 0.8874076 -0.29261246 -0.22115459
0.42946485 -0.8993447 0.08035631 1.2153658 1.5134724 0.39785433 0.6094724 1.6728388
-1.8426872 0.85372424 0.77457404 -0.35852113 0.44927496 -0.61565334 -0.35732022 0.28085178
-0.98180735 0.10213009 1.3105962 -0.8688084 0.040274624 1.1021092 -0.74773395 0.049220216
1.1552472 -0.57900393 -0.5204177 -1.2340294 0.91350603 -0.66979074 0.5281976 -0.14787705
-0.41788495 -0.0012033792 1.3002737 -2.5210562 -0.99899 1.1310626 -2.2067358 -0.7220956
1.6466657 1.3504473 -2.8230782 0.87878805 0.19534796 1.3817376 1.4770921 0.65560246
-0.022386406 -1.6239485 -1.5938482 -0.06255318 0.740876 -0.19482607 -0.47476962 1.6541139
1.3469931 -3.0709293 0.7173436 -1.8882432 0.49884665 0.27372485 -0.52375 -0.84275925
2.1031718 0.9797272 -0.42837697 1.2586979 0.26727146 -0.682128 -0.4450976 1.0999397
0.24179208 0.76427996 0.8429851 -0.51004875 -1.1003336 -0.74744326 1.4120079 0.40994906
-0.35584053 -0.7645476 0.50919616 -1.658518 0.8308254 1.4789937 0.8710461 -0.18964277
0.4590364 0.23522149 -0.7471145 0.3571792 -0.37966692 0.60660696 0.45564625 -1.6251471
0.6919062 1.9536296 0.79662746 -0.51467556 -0.31562465 -2.7711272 -2.1815767 0.6728084

bias f4 [128]
00000000: 54e2 323c e8f1 bcbc c450 923c df76 3e3d
00000010: 11ae c33c 86e0 9bbc 9933 893d 3eb8 32bd
00000020: fe58 debc 36fe 5cbd db61 83bd 4a51 10bc
00000030: 32aa 823c 7284 043c 18e5 97bc 01b2 3b3d
00000040: 8652 7ebc 7581 7b3c 3eff a73a 44e8 9c3c
00000050: 1b22 7c3c 541d 083d dc15 c6bb ca3c 81bd
00000060: 6d10 d0bc 7f93 60bd 9b1a 543d de3a 663d
00000070: e22d f23b 682c 01bc 782d 3abd 23e1 86bd
00000080: 334c 023b 8d8a 85bd cf08 1e3d 0e70 65bd
00000090: 5808 9abb 0849 3f3d e95e 093c b914 3abc
000000a0: a952 763c f83e 3fbd f4ef 593d 3bcc 07bd
000000b0: 7496 ac3b ddca 383d 61bc 3d3d 9457 253d
000000c0: 6627 23bd 96d9 923d 4398 2ebd 2440 24bd
000000d0: d84e e33c f4e7 23bd 67e7 323d 8a77 4c3d
000000e0: ce25 80bd 6d8e 84bd 244b 8ebd e867 6d3d
000000f0: 0a11 303d c8d0 5abd 9970 53bd 2946 34bd
00000100: 0e93 71bd 7dd1 57bd dc50 04bd d352 9e3c
00000110: 9a5c 71bd 5dfd 76bd dc9a ab3b 4561 c43c
00000120: 7e15 09bd 0089 6a3d fd26 783d 562b 543c
00000130: 4a74 62bd 3036 8dbd cccf dabc daa8 283d
00000140: e40d 483d b072 65bd 02a2 393d b38f 3abd
00000150: b802 01bd 3cf2 8abb 9e2d 81bd 10af 083d
00000160: 688d adbc 845f 9abc d007 7f3c cc4c 01bd
00000170: 046c 53bd 529f 513d f270 863c 44c5 80bd
00000180: b18e 41bc 0825 d83c 3477 80bd 9a48 853d
00000190: 2541 133d aca7 a9bc 364b bebb 6e74 8ebd
000001a0: a4d0 3bbd e05a d53c 7ec1 5f3c d490 453d
000001b0: 38d0 7ebd c4b8 bb3c 6029 1cbd 280e 483d
000001c0: 5e6c 3cbd 0a03 2f3d fc72 64bd 5ebf 98bc
000001d0: 5272 353d 63d0 b93c 9a79 82bd 5459 7c3d
000001e0: d128 10bc a6d7 2bbd a900 8e3d 6aa6 adbc
000001f0: fb66 083c 49d5 643d 4654 343d d02a 683d
0.010918219 -0.023064569 0.017860778 0.046500083 0.023886712 -0.01902796 0.066992946 -0.04363274
-0.027142044 -0.053953372 -0.06415149 -0.008808443 0.015950296 0.008088218 -0.018541858 0.045824055
-0.015522605 0.015350689 0.0012817157 0.019153722 0.015388991 0.033231094 -0.0060450863 -0.06310423
-0.025398457 -0.054828163 0.051783185 0.056208484 0.0073907236 -0.007884122 -0.04545352 -0.0658591
0.0019881844 -0.06520567 0.03858262 -0.056015067 -0.0047007017 0.046700507 0.008384445 -0.01135748
0.015034356 -0.04669091 0.053207353 -0.033153754 0.005266959 0.04511534 0.04632223 0.040366724
-0.039832495 0.071704075 -0.042625677 -0.04010023 0.027747557 -0.04001613 0.043677714 0.04991869
-0.06257211 -0.06472478 -0.06947926 0.05796042 0.042985 -0.053421766 -0.051621053 -0.044012222
-0.058978133 -0.052690018 -0.032303676 0.019326603 -0.058926202 -0.06030022 0.0052369665 0.023972163
-0.033467762 0.05725956 0.060584057 0.012949785 -0.055286683 -0.06895101 -0.026710413 0.041176654
0.048841372 -0.056017578 0.04532052 -0.0455472 -0.031496733 -0.0042403024 -0.06307529 0.033370078
-0.021185592 -0.018844374 0.0155658275 -0.03156738 -0.051616684 0.05117733 0.016411278 -0.062876254
-0.011813805 0.026384845 -0.06272736 0.06507988 0.0359508 -0.020709835 -0.0058073057 -0.06955801
-0.045853272 0.02604431 0.013656972 0.048233822 -0.06221029 0.022915252 -0.038125396 0.048841625
-0.046001785 0.042727508 -0.05577372 -0.018645938 0.044298477 0.022682374 -0.0637085 0.061608627
-0.008798794 -0.041953705 0.0693372 -0.021197516 0.008325334 0.055867467 0.044025682 0.056681454

weight f4 [128]
00000000: ebaa 4c3f 2526 9d40 c00e 883e 7d2a 6540
00000010: 3ae6 413c 4327 ab3e 2385 2341 e1d9 ea3c
00000020: 8783 3a3f 9193 1240 e10b 8140 1d33 c43d
00000030: 3eec 5940 5eb5 3c3d 596e b740 bc44 5440
00000040: c5c9 8940 ba27 983f 112a 5c40 0849 a13d
00000050: 0610 773e 0486 c53e 80ae c93d 6faa 753e
00000060: aaf5 a73e 2045 833f 1d64 0440 64be 013d
00000070: 2479 103e 48d6 38be e6a8 623f d4a2 2440
00000080: 79b3 563e c04c 4a41 e814 a9bd 5c34 a83d
00000090: 538f 6d3e 91ff 033e a52f 013e 5165 c23e
000000a0: 33d9 3840 a47f c43d 65c4 1040 b3e3 9040
000000b0: b461 d2bd 82bb 1240 e5d7 91be a25a c43d
000000c0: f28d 823f 2b1a ab3b 3de2 1840 866e a5be
000000d0: a7b9 1e3e bdbc 8bbe d68a 663f c758 6e40
000000e0: e39e 5e3e 4db6 8f40 3ab1 963d 45c3 1440
000000f0: 727e a63e 9f2f 403c 2f06 6e40 c4e9 3d40
00000100: 2f9a 993e 0f96 9e3d 7af9 053e 8d4c b540
00000110: 979e f53d a131 b540 50bd 6cbe aa25 ae3f
00000120: 913d 833e 9398 6f40 07d8 053e fa8f 5c41
00000130: 62cf a93e 43d7 4d3f 5761 2440 42db 173d
00000140: f22e 0240 e54f a23d 3598 be3d d901 1041
00000150: 8a27 1240 e8a3 a53d ad54 3d40 a484 d93b
00000160: 072b be3e 0560 5abe 0acd e33d 5cca 303d
00000170: e991 b73f f64e ac3e fd4d f53f 811b c1bd
00000180: cd5b f53f 3e6a 273f 1e67 1abe 15de 9e3d
00000190: f633 f5bb e67b b83e 3bd1 943f cd1a 4fbe
000001a0: 88a5 d43e 2c41 85bd 6aed 673d 4fbe 423f
000001b0: 4612 453d cece a63d 79bb af3e 68fc 043e
000001c0: 7085 1b40 7efc 703e 8323 1940 0d4c 88be
000001d0: ed9e 2f3e 1a14 3e40 7362 073e d217 1840
000001e0: a37b 1f3e 3ed2 7dbe ea96 6540 a04c 083e
000001f0: 4dee e93f 9ef8 423e 0c37 403f f67b f23f
0.799483 4.9109063 0.26573753 3.5807183 0.011834675 0.33428392 10.220004 0.028668346
0.72856945 2.2902567 4.0327 0.095800616 3.405044 0.046071403 5.73222 3.3166952
4.30588 1.1887124 3.4400675 0.07875258 0.24127206 0.38578808 0.09847736 0.23990797
0.32804614 1.025547 2.0686104 0.03167571 0.14108711 -0.18050492 0.8853897 2.5724382
0.20966901 12.643738 -0.08255941 0.08213112 0.23199205 0.1289046 0.12615831 0.37967923
2.8882568 0.09594658 2.261987 4.5277953 -0.10272542 2.2926946 -0.28485027 0.09587599
1.0199568 0.0052216253 2.3888085 -0.32310885 0.15500508 -0.27292433 0.90055597 3.7241685
0.21740298 4.4910035 0.07358022 2.3244183 0.32518345 0.011730104 3.7191274 2.967393
0.30000445 0.07743465 0.13083449 5.6655946 0.11993139 5.662308 -0.23119092 1.3605244
0.2563291 3.7436874 0.13070689 13.785151 0.33166033 0.8040659 2.5684412 0.037074335
2.0341153 0.07925395 0.09306375 9.000451 2.2836633 0.08087903 2.9582932 0.0066381264
0.37142202 -0.21325691 0.111230925 0.043161735 1.4341403 0.33653992 1.9164425 -0.09429074
1.916864 0.6539649 -0.15078399 0.077572025 -0.007483001 0.36032027 1.1626352 -0.20225067
0.4153254 -0.06506571 0.0566229 0.7607164 0.04811313 0.081449136 0.34322718 0.1298691
2.4300194 0.23533818 2.3927925 -0.26620522 0.17150469 2.969977 0.13221149 2.3764539
0.15574507 -0.24787232 3.587336 0.1331048 1.8275849 0.19040152 0.75083995 1.894408

bias f4 [128]
00000000: 7e98 8ac0 7481 e1bf 1800 dec0 6aab bebf
00000010: 6f67 2bc0 22ff dac0 fe3b 77c0 eaf7 9dc0
00000020: a046 adc0 ccee 32c0 440d f8bf 7d7e afc0
00000030: 41ab 0ac0 0d61 b1c0 3821 7cc0 b2b5 80bf
00000040: dd20 eabf 4f0a 74c0 19e6 1bc0 8f75 b7c0
00000050: 23b3 b4c0 285f 2cc0 81dc d2c0 b28b cec0
00000060: 16b9 e2c0 7bfc 81c0 7029 1ec0 85ed a5c0
00000070: 5e45 dbc0 7414 f3c0 91ef 8dc0 a92a 29c0
00000080: a6e9 d9c0 ae3e 9bc0 639a fac0 07a3 91c0
00000090: c584 aec0 57bf 92c0 280b b1c0 0ed8 c1c0
000000a0: 778b 39c0 bf8a b4c0 f189 37c0 49e4 c1bd
000000b0: d373 c3c0 acc3 3ac0 8d78 d1c0 30cf bdc0
000000c0: 98cf 56c0 ffb3 d3c0 4dff 30c0 06ef cfc0
000000d0: a48c a6c0 b664 bec0 b195 10c0 2ad0 6abf
000000e0: d747 d7c0 f978 dbbf c128 b1c0 c347 3bc0
000000f0: 4217 d6c0 de7b aac0 64c3 78bf af6f 03c0
00000100: 7179 ddc0 040f b1c0 516c d2c0 e4c3 babf
00000110: 7776 b7c0 b878 afbf e9fb b1c0 40e0 7bc0
00000120: 2428 e1c0 1644 9abf ee08 d7c0 0d17 0fc0
00000130: 2350 e2c0 c577 c3c0 0fec 3ec0 3cd3 a4c0
00000140: d985 83c0 5ef8 d7c0 cb30 b9c0 c681 d6bf
00000150: dd6b 35c0 4f17 b2c0 f94d 24c0 b9fd adc0
00000160: 63fa dbc0 fd37 c5c0 9cc1 c2c0 a195 92c0
00000170: 6e1a 90c0 5091 c2c0 4f34 85c0 8076 b4c0
00000180: 1a2d 50c0 fa40 1cc0 17cf c8c0 477f 9bc0
00000190: 7777 c1c0 2baf dac0 777c 7dc0 c80f c6c0
000001a0: 9cd1 89c0 9169 cac0 ea81 9dc0 8362 afc0
000001b0: e8ab afc0 15ef c8c0 1331 e9c0 b26f ecc0
000001c0: 866c 48c0 af83 b1c0 f7cc 0bc0 2779 c5c0
000001d0: dff9 d5c0 b062 12c0 5339 9bc0 5558 28c0
000001e0: 03c0 d9c0 79db ccc0 8f26 57c0 b74d e3c0
000001f0: 7bc9 73c0 1afc d5c0 9cb7 b6bf caa6 3fc0
-4.331115 -1.7617631 -6.9375114 -1.4896061 -2.678188 -6.843644 -3.8630366 -4.936513
-5.414871 -2.795825 -1.9379048 -5.4841905 -2.1667025 -5.543097 -3.9395275 -1.0055449
-1.8291279 -3.8131292 -2.435919 -5.7331004 -5.6468673 -2.6933079 -6.589417 -6.4545527
-7.0850935 -4.0620704 -2.4712791 -5.185244 -6.8522177 -7.5962467 -4.435494 -2.6432288
-6.8097715 -4.8514013 -7.831346 -4.551151 -5.453707 -4.585857 -5.532612 -6.057624
-2.8991373 -5.641937 -2.8677943 -0.0946737 -6.1078887 -2.9181929 -6.5459657 -5.9315414
-3.3564205 -6.615722 -2.7655823 -6.4979277 -5.204668 -5.949794 -2.2591364 -0.91723883
-6.7275195 -1.7146293 -5.536225 -2.926255 -6.690339 -5.3276205 -0.9717314 -2.0536916
-6.9210744 -5.533083 -6.575722 -1.4591031 -5.733211 -1.3708715 -5.5620008 -3.9355621
-7.03615 -1.2052028 -6.71984 -2.235782 -7.0722823 -6.1083703 -2.9831579 -5.1507854
-4.110089 -6.7490683 -5.787206 -1.6758354 -2.8347085 -5.5653453 -2.567259 -5.437222
-6.874315 -6.1630845 -6.086134 -4.5807652 -4.5032263 -6.0802383 -4.1626353 -5.6394653
-3.2527528 -2.4414659 -6.2752795 -4.859287 -6.045833 -6.833883 -3.9607217 -6.1894264
-4.306837 -6.3253865 -4.9221087 -5.4807754 -5.4897346 -6.279185 -7.2872405 -7.3886347
-3.1316237 -5.5473247 -2.184385 -6.171039 -6.686752 -2.2872734 -4.8507476 -2.6303914
-6.804689 -6.401791 -3.3617284 -7.1032367 -3.8091724 -6.687024 -1.4274783 -2.994555

running_mean f4 [128]
00000000: ccec abc2 aacb 9fc1 1d4b 85c2 ea27 43c2
00000010: ec2c fdc1 118f 8ac0 8922 1443 30d4 69c1
00000020: d869 01c3 789a 22c3 ffc0 e0c1 ff13 4dc2
00000030: d952 6bc2 93a2 63c1 9e8b 1742 87fb 54c1
00000040: 4ba8 96c0 95cb 8dc2 96e7 5242 b0a6 b0c2
00000050: bc25 ab40 b9c3 71c2 0113 25c1 901a 4cc2
00000060: d047 4ac2 b331 6bc2 ca65 59c2 26d8 90c1
00000070: d08c 65c1 bd26 5241 4d55 f2c2 f345 16c3
00000080: f75d 83c2 ba72 2b43 94f8 c740 9a51 d8c1
00000090: 123e b6c2 0dad c7c1 b16c 54c2 f33e d6c1
000000a0: f908 2642 fb54 eac2 edf9 2fc3 2ac6 a5c2
000000b0: 631e 49c0 2b09 9e40 3386 27c1 efc3 8bc2
000000c0: 6af7 6fc2 1e75 7ec2 b0c2 2ac3 c999 abc0
000000d0: 7d54 73c1 d7c4 2ac1 cfb5 4342 b73b 94c2
000000e0: f2d6 c4c2 1752 d1c1 9d14 17c2 9db8 29c3
000000f0: 5d8f 4fc2 0b7d 7641 b6af b0c2 b11f 79c2
00000100: 2f3b 85c2 76d3 b4c2 a0af bac1 ce70 12bf
00000110: ad7c 6cc2 03aa a742 f10b 26c1 f01a 0fc3
00000120: 92d7 39c2 53e7 cc40 5d80 66c1 30a7 e642
00000130: 2d1c 74c2 4535 c3c2 3de7 26c3 c9b7 8d3f
00000140: 1ac7 a542 babb 1fc1 2935 abc2 7b86 f642
00000150: 0d6c 44c3 58be fdc2 4cf6 1d42 a742 00c1
00000160: 1793 21c2 b5a5 a8c0 51a8 efc2 6a2c 24c2
00000170: 0323 20c3 a3a2 c6c2 2349 08c3 02ab 06c0
00000180: ae1a 39c3 4912 9dc2 fe14 a640 d47e 95c2
00000190: 4607 49c2 9b34 48c2 aa2f d7c2 147e 10c1
000001a0: 816d 8dc1 e902 973f c259 04c3 2443 18c3
000001b0: 8e0f 29c1 f675 5dc2 f5fd 8f3f be46 62c2
000001c0: 312d 11c3 c385 99c2 e7bd 60c2 d239 1dc1
000001d0: 9e47 17c2 6392 2dc3 0c77 c1c2 1549 18c3
000001e0: 296a 7dc2 08d8 dcc0 e3e7 55c0 201b 57c1
000001f0: fc3b 5c42 c1d1 3ac1 41df 87c2 8e37 68c2
-85.962494 -19.974445 -66.646706 -48.78898 -31.646935 -4.329964 148.1349 -14.614304
-129.41345 -162.6034 -28.094236 -51.269527 -58.830906 -14.227191 37.886345 -13.311408
-4.7080436 -70.89762 52.72616 -88.32556 5.3483562 -60.441135 -10.31714 -51.02594
-50.57013 -58.798534 -54.349403 -18.105541 -14.346878 13.134458 -121.1666 -150.27324
-65.683525 171.44815 6.249094 -27.039845 -91.12123 -24.959497 -53.106144 -26.780737
41.508762 -117.16598 -175.97627 -82.88704 -3.1424797 4.938619 -10.4702635 -69.88268
-59.991615 -63.614372 -170.7605 -5.3625226 -15.208127 -10.673057 48.927547 -74.11663
-98.419815 -26.165083 -37.77013 -169.72115 -51.890003 15.405528 -88.343185 -62.28095
-66.61559 -90.41301 -23.335754 -0.57203376 -59.121754 83.832054 -10.377915 -143.10522
-46.460518 6.403238 -14.406339 115.32654 -61.027515 -97.60404 -166.90327 1.1071712
82.88887 -9.983332 -85.60383 123.26266 -196.42207 -126.871765 39.490524 -8.016273
-40.393642 -5.270228 -119.82874 -41.043373 -160.13676 -99.31765 -136.28569 -2.1041875
-185.10422 -78.53571 5.1900625 -74.74771 -50.257103 -50.051373 -107.593094 -9.030781
-17.678469 1.1797763 -132.35062 -152.26227 -10.566298 -55.365196 1.1249377 -56.569084
-145.17653 -76.76125 -56.18545 -9.826616 -37.81994 -173.57182 -96.73251 -152.28548
-63.353672 -6.901371 -3.3422782 -13.444122 55.05858 -11.676209 -67.93604 -58.054253

running_var f4 [128]
00000000: 511b e445 0d3f 6745 d5e2 6045 8b23 cf45
00000010: 73b4 b445 3c15 7945 d7fa e345 ab78 3345
00000020: 1acb 2846 6c1c 6646 1dd9 6c45 a25b 8545
00000030: 4a12 d645 302d 1345 200e 3745 2166 ce44
00000040: 38ae ae45 d0c7 0346 93e4 8545 3143 0746
00000050: 2204 dd45 954a a345 e4ea 0345 7c23 8445
00000060: 42ae 4345 6893 c145 cc53 e745 0322 4545
00000070: 3d0b 1d45 ea39 5d45 fe3f 1a46 1257 4246
00000080: 7e5a 9f45 c1ba cb45 5edc 2c45 244c a545
00000090: abd2 d445 efbb 3446 1bd7 9945 9be1 9b45
000000a0: 1496 8744 e038 3f46 1bfc 6946 dc25 8844
000000b0: 1729 d945 c6a3 8f45 c4be 4945 157c a445
000000c0: 72ec 0a46 5794 2545 5a0f 6446 b37d 8c45
000000d0: 7783 0246 5c1c b545 59d3 e144 a790 6346
000000e0: 2133 0f46 daf6 7a45 537b 6e45 abdc 6346
000000f0: a226 1e46 6e42 d844 7d37 2545 9e49 bc45
00000100: 8d0e 8845 d534 0346 f121 2c45 7153 b745
00000110: 180a 9545 af5d c645 92b0 d145 9cbc 5146
00000120: f5e8 1645 6717 7545 72af 1345 6b5b 1d46
00000130: e8e9 8845 719d 2646 6518 6746 49ca 2845
00000140: 77a2 dd43 2dfa 2145 8251 dc45 418c 7645
00000150: 3db3 8e46 ad33 5846 ce45 7245 4c92 6045
00000160: eb58 6d45 986d 7d45 66f8 4a46 9370 9a45
00000170: a3c8 5e46 9fe8 dd45 b71c 3046 2efd 8e45
00000180: cc8f 8846 b823 c045 8b02 4a45 7ae9 a345
00000190: a58c 6d46 b58c 7745 8ed8 1a46 a6b4 8245
000001a0: a5e9 1846 19f5 ff44 865e 6646 b619 2e46
000001b0: 5679 1d45 dfa9 7246 b1f7 9345 4847 fb44
000001c0: a806 3d46 0c03 ba45 b5f6 a945 c976 9145
000001d0: 7a34 1045 2926 5246 9fa1 ef45 5c83 5446
000001e0: 29ec 4245 62f6 7c45 18dc 6645 06ec ea44
000001f0: 294f 5d44 5a38 4445 0cdc a445 c454 3746
7299.4146 3699.9407 3598.177 6628.443 5782.556 3985.3271 7295.355 2871.5417
10802.775 14727.105 3789.5696 4267.454 6850.286 2354.8242 2928.8828 1651.1915
5589.7773 8433.953 4284.572 8656.798 7072.5166 5225.3228 2110.6807 4228.4355
3130.891 6194.426 7402.4746 3154.1257 2512.7024 3539.6196 9871.998 12437.768
5099.3115 6519.344 2765.773 5289.5176 6810.3335 11566.983 4922.888 4988.2007
1084.69 12238.219 14975.026 1089.1831 6949.136 4596.4717 3227.9229 5263.5103
8891.111 2649.2712 14595.838 4495.7124 8352.866 5795.545 1806.6046 14564.163
9164.782 4015.4282 3815.7078 14583.167 10121.658 1730.0759 2643.468 6025.202
4353.819 8397.208 2754.1213 5866.43 4769.2617 6347.7104 6710.0713 13423.152
2414.5598 3921.4626 2362.9653 10070.8545 4381.2383 10663.36 14790.099 2700.6428
443.26926 2591.636 7050.1885 3944.7659 18265.62 13836.919 3876.3628 3593.1436
3797.5574 4054.8496 12990.1 4942.072 14258.159 7101.0776 11271.179 4575.6475
17479.898 6148.465 3232.159 5245.1846 15203.161 3960.7942 9910.139 4182.581
9786.411 2047.6593 14743.631 11142.428 2519.5835 15530.468 4734.9614 2010.2275
12097.664 5952.381 5438.8384 4654.848 2307.2798 13449.54 7668.2026 13600.84
3118.76 4047.399 3693.7559 1879.3757 885.2369 3139.522 5275.506 11733.191

weight f4 [64, 128, 3]
00000000: 34d3 743f cf28 4e3e d100 b4bf d059 c7bf
00000010: 244e b63e 8865 2cbf 5e82 e33d 6085 4f3f
00000020: 815a d6be 226a d13f 7425 54bf 3829 d53f
00000030: 1c8e 06be f576 8b3f a3c6 d6be ff20 5f3b
00000040: 762c 033d 3009 3bbe 6486 ae3d f56f cabf
00000050: 6671 4c3e ce85 bd3d ed60 033f e5fe 17bf
00000060: 5666 303f 22cc da3d dc39 86bf d266 d73f
00000070: 90c2 bbbe 56fd ebbf cc57 7abe e788 843f
00000080: 958e 28c0 210c 383e fdb4 433f 2524 2fbf
00000090: 7967 c43f ccb2 243f c649 1bc0 2dcb 973e
000000a0: efee 313f 9bcc 32bf f007 f73e a538 29c0
000000b0: 5eb1 2fc0 c1c3 663e 4669 31be ec79 2bbf
000000c0: 0e4b 4b40 f726 0fbf e4d9 00c0 bef4 b03f
000000d0: 11e0 06be ff34 80bf ddde 8f3d ab3f 0f40
000000e0: bdbb de3e 9c8c 423e 2b2f 573f 8d1b 79bf
000000f0: 7d15 763d 38ec bdbe 71e0 00bd ce02 71bf
00000100: 38eb 3ebe ded6 97be 2e6f 9a3d bda6 23bb
00000110: 5f56 293d 1cf5 493e 07bd 3e3f 8903 a1be
00000120: d5e9 553e f798 cd3e 5277 45be 502a 553f
00000130: 0184 e43e 6817 b2bf 0698 a8bf 4ce2 5f3f
00000140: d468 6abf 260a 213e 17c0 3e3f 19bb 09bf
00000150: 4ec9 013e 89ca fd3d 0765 febd 83e2 123e
00000160: b41d 543e 5cd1 c5be 9c95 6b3f 89d2 a93e
00000170: c529 acbf 57c5 d43f 4439 d1be 0332 02c0
00000180: 7eec 4c3e faee cb3e 1eba 40bf bbae c1bd
00000190: f683 c0bf 36ed 973d e898 073f 9be6 053c
000001a0: 9ef2 bfbe 00eb 2a3d 2284 7c3e 4878 98bf
000001b0: 3b41 b13e b977 da3e 7613 9abf d177 173e
000001c0: 915b 3bbf 4574 be3d a0a0 653e 2f10 343f
000001d0: 0d5b 0cbf 1f64 7e3e 20d8 84be a2be c23e
000001e0: 98a2 c53f 4564 97bf bc9f 0d3f cdfd 373e
000001f0: 7514 323f 5ccc 80bf 3bae d43f aff1 e5be
00000200: 84cb e4bf 3a64 b03f 266e f0bf 57ca 5fc0
00000210: 07b9 383e 874e f43d f7f9 bf3b 078e 7bbe
00000220: e463 71be 5a50 413f e704 da3d 851a 8e3e
00000230: aedd b7bd 079c a73e fb30 8d3e e1bf 59be
00000240: d412 1fbf 3168 283f 2176 a0bf 4a9b ad3d
00000250: afc8 3e3f 0a09 9fbe 2cd8 cb3f a6b5 94be
00000260: 378e 06c0 cf7b d03d 4a5a 583d 35de 393c
00000270: 7de4 2c3e 0406 30be 21ca 053d db15 213e
00000280: 05ea b5bd b4b8 69bc 65d3 28be 5dc3 0740
00000290: 88e7 813f 4089 a03f 2748 64bf 3a55 e33f
000002a0: 9818 4f3e 2e00 493f c686 0ebf 8d6c c9bf
000002b0: 591b c83e a045 48bf efec 733e cacc f33e
000002c0: d78d 4bbf a9f9 da3f 3e04 cdbe 7cda ecbf
000002d0: 5e78 833e 459c 30be ff55 3f3d c332 103e
000002e0: 20af 24be 44bf 88be 21c9 2f3f b3b6 7ebf
000002f0: 76ce ffbf c6f2 c3bf 6c15 823f 6fd2 84bf
00000300: 5927 093e 1215 3b3f a8da d1be 2bf9 4f3e
00000310: 1ad8 813f 6295 5ebf ddbd e53e 4a57 d03d
00000320: 9369 c8be 85cf cabe efed dfbf 2fa1 953f
00000330: 5baf 513e b38f 263f da7f 14bf 9917 9a3d
00000340: 3952 6abf a06e 26c0 9f58 d83d 666b 8f3d
00000350: 8ac3 54bb cb56 7a3f 7a2d e6bc 1f3f bdbf
00000360: 9cf8 c23e a378 6d3e 2bbe ebbe 801f 4b3f
00000370: 0faf 65bf c67c e0bf a162 bb3d 9876 183e
00000380: 7f1a 9b3c 6820 423f 2948 5cc0 5828 b83e
00000390: 239d 403e 959d 2c3f 13f1 afbe b683 d63e
000003a0: 3ddb 433d 2249 17bf 36c3 773f 3e77 153f
000003b0: d376 ffbf eb6c 643e 6d6e 0b3f 9138 ccbe
000003c0: 72da b83e e765 123c 28e0 513f 49db 043f
000003d0: 90bd 093e 3358 bcbe fb94 f23d 9d98 7a3f
000003e0: 98f3 3dbf d1ad 6b3e f0bc 22c0 b69c f1bc
000003f0: 9bcd ce3f 6ab7 be3c 8f14 0cc0 22fd 823e
0.9563477 0.20132755 -1.4062749 -1.5574284 0.35606492 -0.67342424 0.1110885 0.8106289
-0.41865924 1.6360514 -0.8286965 1.6653204 -0.13140148 1.0895678 -0.41948423 0.0034046767
0.032024823 -0.18265224 0.08521727 -1.5815417 0.19965133 0.09254037 0.5131977 -0.59373313
0.6890615 0.106834665 -1.0486407 1.6828253 -0.36671877 -1.8436687 -0.24447554 1.0354279
-2.6337025 0.17973377 0.7644804 -0.6841453 1.5344077 0.6433532 -2.4263778 0.29647198
0.6950521 -0.69843453 0.48248243 -2.6440823 -2.7452006 0.22535612 -0.17325315 -0.66982913
3.176456 -0.5591883 -2.013299 1.3824689 -0.13171412 -1.0016173 0.0702493 2.238261
0.43502608 0.1899895 0.8405635 -0.97307664 0.060079087 -0.37094283 -0.031464044 -0.94144905
-0.18644416 -0.29656118 0.07540737 -0.002497121 0.041342136 0.19722408 0.7450718 -0.3144801
0.20889981 0.40155765 -0.19283798 0.8326769 0.4463196 -1.3913393 -1.3171394 0.87454677
-0.91566205 0.15726528 0.74511856 -0.53801113 0.12674448 0.12392146 -0.12421613 0.1434422
0.20714456 -0.3863629 0.9202516 0.33168438 -1.3450247 1.6622723 -0.40864003 -2.0343025
0.2001209 0.39830762 -0.7528399 -0.09457155 -1.5040271 0.07418291 0.5296769 0.008172656
-0.3748979 0.04172802 0.2465978 -1.1911707 0.3462008 0.42669466 -1.2037189 0.147918
-0.73186594 0.092995204 0.22424555 0.70337194 -0.5482643 0.2484288 -0.2594614 0.38036066
1.5440245 -1.1827475 0.5532186 0.17967911 0.69562465 -1.0062366 1.6615671 -0.44910952
-1.7874608 1.3780587 -1.8783615 -3.4967248 0.18039332 0.119290404 0.0058586556 -0.24565898
-0.23573261 0.7551323 0.10645466 0.27754608 -0.08977829 0.32736227 0.27576432 -0.21264602
-0.62138104 0.65783983 -1.253605 0.08476885 0.7452497 -0.31061584 1.5925345 -0.29044837
-2.10243 0.101798646 0.05282048 0.011344482 0.16884036 -0.17189795 0.03266347 0.15730993
-0.08882526 -0.014265228 -0.1648689 2.121299 1.0148783 1.2541885 -0.89172596 1.7760384
0.20224226 0.785159 -0.556744 -1.5736252 0.39083365 -0.7823124 0.23820852 0.4761718
-0.79513305 1.710744 -0.400423 -1.8504176 0.2567777 -0.17247112 0.04671287 0.14081864
-0.1608243 -0.26708424 0.68666273 -0.99497527 -1.9984882 -1.5308464 1.0162787 -1.0376719
0.13393916 0.73079026 -0.40987134 0.20309894 1.0144074 -0.8694669 0.44871417 0.10172899
-0.39143047 -0.3961145 -1.7494487 1.1689814 0.20477049 0.6506302 -0.58007586 0.07524032
-0.9153171 -2.600502 0.10563778 0.070029065 -0.0032465183 0.97788686 -0.028097857 -1.4784888
0.380803 0.2319055 -0.46043524 0.7934494 -0.89720243 -1.7538078 0.09149671 0.1488899
0.018933533 0.758307 -3.4419043 0.3596828 0.18809943 0.6742795 -0.34363613 0.41897362
0.047816504 -0.59095967 0.96782243 0.58385074 -1.9958137 0.22307174 0.5446537 -0.39886907
0.3610416 0.008935428 0.8198266 0.518971 0.13451219 -0.3678604 0.11844822 0.9788912
-0.7419982 0.23015524 -2.5427818 -0.02949367 1.6156496 0.023280818 -2.1887548 0.2558375

bias f4 [64]
00000000: 7033 32bb c39e e3bc 0649 3dbd 8b2a 85bc
00000010: cde3 febc 2380 01bd f201 19bd 9a40 4e3c
00000020: dd9b 453d 35fa 9e3c 2e24 ecbc d65b dfbb
00000030: 551a 193c 0465 cf3c 568f 82bc 00bd 45bc
00000040: 580c a8bc 5225 6ebc 0025 92bc f460 443d
00000050: 5072 41bb 7a91 5e3c cbcf a33c 7f01 28bd
00000060: ca15 10bd 5162 973c cde9 643c 7b7a 3ebd
00000070: 60ce 3c3d 4f97 e7bc a2db 8f3a 761c 85bc
00000080: 800a 3e3b bef7 893c aaff 28bd 7d3e 28bd
00000090: 443a a3bc e121 fbbc 527e 3fbc fc6b 3abb
000000a0: 88e7 38bd 155e 1bbc edd5 503c b8f6 2f3d
000000b0: b6ad 273d 95f7 38bd 601a 313c 6c98 413d
000000c0: 1d63 b93c aa7f d73c ca5a 6abc 8a7c 113d
000000d0: 5204 033d a329 043d da5d aa3c aac6 183d
000000e0: 2ec0 00bd 836e 30bd edfa 12bc 773e 0cbd
000000f0: 8f60 d1bc 6680 05bd 3635 7c3a 185e d7bb
-0.0027191304 -0.027785664 -0.04621222 -0.016255638 -0.031114483 -0.03161634 -0.03735537 0.012588644
0.048244346 0.019406417 -0.028825846 -0.0068163676 0.009344657 0.025316723 -0.015937489 -0.012068987
-0.020513698 -0.014535265 -0.017839909 0.047944024 -0.0029517598 0.013584489 0.019996544 -0.04101705
-0.03517703 0.018479498 0.013971758 -0.046503525 0.046095252 -0.028270392 0.001097549 -0.016248923
0.0028997958 0.016841765 -0.041259445 -0.04107522 -0.019925244 -0.030655803 -0.011687832 -0.0028445711
-0.04514268 -0.00948288 0.012746316 0.0429599 0.040937148 -0.045157988 0.010809511 0.0472645
0.022630269 0.026305992 -0.014303872 0.03551916 0.031986542 0.03226627 0.020796705 0.037298836
-0.031433277 -0.043074142 -0.008970958 -0.03423926 -0.025558738 -0.032593153 0.0009620966 -0.006572496

weight f4 [64]
00000000: 51c6 003f a6d8 a340 1033 553f 9782 0540
00000010: b138 fe3f 8200 cf3f 66a6 db40 692e 2340
00000020: f31d 8c3f 05fe 073f e944 6940 6792 513f
00000030: 971b c23e 848d ad3d 9d60 0941 084f 3a3f
00000040: 73ef 7240 df36 be3e 469a f03f 2fb4 df3c
00000050: 6891 0940 e472 cf40 43fd a640 5c58 8240
00000060: c2a9 5240 ba6c 3140 3a43 ad40 f6e9 8340
00000070: 02df 0a41 29af 4f3e a774 c73f b5e6 0040
00000080: 8708 613f 98c6 c940 7bcc 3f3f d940 d73f
00000090: b7f9 393d 1a85 dc3f 4348 3340 52f3 4540
000000a0: 92ca 853f 83eb df3d 435f fb3e 825e e43c
000000b0: 753f 643f 0d50 9c40 36a9 b340 6fe5 0041
000000c0: f85e 033f dab9 a540 8edf 8040 228b 0e41
000000d0: 8eb4 0e3e 9f2b c83f cdb6 a33f 9bf3 9640
000000e0: 99ec de3f b42a 9d40 6d1f 683f 8e1a fb3e
000000f0: fec9 5f40 f1ff a53f 4078 bd40 7fb5 9840
0.50302607 5.1201963 0.8328104 2.0860956 1.9861051 1.617203 6.8640623 2.5497077
1.094664 0.5312198 3.644831 0.8186402 0.37911674 0.084742576 8.586087 0.7277684
3.7958648 0.37151238 1.879708 0.027307598 2.1495 6.4827747 5.2184157 4.073286
3.2916112 2.7722611 5.4144564 4.1223097 8.679445 0.20281662 1.5582474 2.0140812
0.87903637 6.3054924 0.7492139 1.6816665 0.045404162 1.7228119 2.8012855 3.092976
1.0452445 0.10933592 0.49096116 0.027877096 0.8915933 4.884772 5.6144056 8.056014
0.51316786 5.178937 4.0272894 8.908968 0.13936064 1.5638312 1.2790161 4.717237
1.7415954 4.911463 0.9067295 0.49043697 3.4967036 1.2968732 5.920929 4.7721553

bias f4 [64]
00000000: 8d6f 19c0 4b8f a5bf d5c6 05c0 b748 ebbf
00000010: bde9 c8bf 6dc2 f6bf c256 57bf e73c 71c0
00000020: 5313 02c0 9e3f d4c0 766b 41c0 841f 43c0
00000030: f60c 36c0 bea5 a5c0 0fe4 f7be 4f7b eabf
00000040: a84c b93e 09b2 0fc0 2287 bc3f ccac d0bf
00000050: 5211 efbf 178b b9bf fa90 36c0 cd78 84c0
00000060: aa08 30c0 1098 98bf e9e4 63bf ad92 a1bf
00000070: 4f5f adbf 06fd 9dbf ec18 0bc0 3688 0ac0
00000080: 6657 39c0 31ad 38c0 954f 37c0 78bd 78c0
00000090: 9a25 27bf 53c8 04c0 b636 51c0 ee02 463f
000000a0: 15c2 fcbf d541 f2c0 0f57 30c0 57ec 89c0
000000b0: c017 1dc0 6673 2ac0 ffcb ffbf 1ce5 cabe
000000c0: a8a3 62c0 f362 0ac0 3646 16c0 6da8 80bf
000000d0: cb8b 4dc0 c27f 30bf ca2a d2bf 0be2 52c0
000000e0: 5954 5cbf 76b8 12c0 b6dc 12c0 e5df 86c0
000000f0: b733 cdbf dff4 aebf 05f4 65be db74 14c0
-2.3974335 -1.2934355 -2.0902607 -1.8381566 -1.5696331 -1.9278084 -0.84116757 -3.7693422
-2.0324295 -6.632766 -3.022184 -3.0487986 -2.844541 -5.176482 -0.48416182 -1.8318881
0.36191297 -2.2452414 1.4728739 -1.6302733 -1.8677161 -1.4495572 -2.8525987 -4.139746
-2.7505288 -1.1921406 -0.89021164 -1.2622887 -1.3544711 -1.2342842 -2.173396 -2.1645637
-2.8959594 -2.8855708 -2.8642323 -3.8865643 -0.6529175 -2.0747268 -3.2689643 0.7734822
-1.9746729 -7.570536 -2.7553136 -4.3101 -2.4545746 -2.6632934 -1.998413 -0.39627922
-3.5412388 -2.1622894 -2.3480353 -1.00514 -3.2116573 -0.6894494 -1.6419308 -3.2950466
-0.86066204 -2.2925086 -2.2947211 -4.214831 -1.6031407 -1.3668479 -0.22456367 -2.3196323

running_mean f4 [64]
00000000: 5271 4ac2 710c 5942 0ed0 c9c1 95fe 0442
00000010: 7171 4ac0 8906 a141 b468 e1c2 453c 3141
00000020: f519 81c2 7769 3bc2 b15d 3642 f9c5 9fc1
00000030: 69ef c741 720b fa3c db5a d2c2 a4ed f7c1
00000040: 8fa4 c7c1 1957 373f ebf3 b841 63f3 a4bf
00000050: ef40 cd40 37b8 c6c1 1e99 6dc1 ea22 84c1
00000060: a7f8 4142 690f e041 fc4a 4fc2 2dae a1c1
00000070: 53cf 1ec2 5050 8f41 a5fe a841 7fd5 9cc0
00000080: 4417 5ac1 ba27 8fc2 c7bd 37c2 4b34 3342
00000090: 2811 dfbf 7adc 0642 daa6 dfc1 cef7 67c1
000000a0: 272e 5cc2 877b d4c1 132d 7741 db16 7240
000000b0: 762b 46c2 01c5 b7c1 2e88 e3c1 d604 83c1
000000c0: fd02 3dc2 34fa 31c1 e117 0040 f1a8 d2c2
000000d0: d577 b8c1 39d9 9bc1 ec47 15c1 8270 d041
000000e0: 382a c5c0 78e1 87c0 135d eec1 7399 3cc2
000000f0: 8d52 c6c1 2ad5 6ac1 c479 b541 29a3 f9c1
-50.610664 54.26215 -25.22659 33.248615 -3.163174 20.128191 -112.7045 11.077214
-64.5507 -46.852993 45.591496 -19.971666 24.9919 0.030523036 -105.17745 -30.991035
-24.95535 0.71617275 23.1191 -1.2886776 6.4141765 -24.839949 -14.849882 -16.517048
48.492825 28.007524 -51.823227 -20.210047 -39.702465 17.914215 21.124338 -4.9010615
-13.63068 -71.57759 -45.93533 44.801067 -1.7427111 33.71531 -27.95647 -14.497999
-55.04507 -26.560316 15.448504 3.782645 -49.542442 -22.971193 -28.441494 -16.377361
-47.25292 -11.123585 2.0014575 -105.32996 -23.058512 -19.481066 -9.330059 26.054935
-6.1614037 -4.246273 -29.795446 -47.149853 -24.790308 -14.677042 22.684456 -31.204668

running_var f4 [64]
00000000: 2a8b d545 0c92 d844 c905 0a45 fd4b 8644
00000010: 6226 d743 3121 c644 2b27 a446 cc6d 7944
00000020: e470 f545 d361 9645 8618 2d44 62df b445
00000030: 5624 b444 b126 a344 79de 9646 5a77 6045
00000040: 059a 1b44 e966 3c45 6db8 8f44 6cb4 c545
00000050: de0d 2044 f707 9e44 9927 3e44 f895 f343
00000060: 782d 7b44 aff9 c045 a04f b844 d7d5 fd43
00000070: d8f6 3e45 0488 0845 c830 1044 a7fe 9744
00000080: 2eaa a245 18cb f845 21d8 f145 388d 9144
00000090: dba8 ff45 e686 5145 02b5 d344 0645 d144
000000a0: 79d4 d545 4686 0945 92d4 0745 199c 7b45
000000b0: b11f ee45 8e51 8444 9235 8444 46b4 2244
000000c0: 1028 6845 72c5 d444 5c56 1144 1f4b a446
000000d0: fe41 a245 09b2 a644 e456 8745 a4f7 6b44
000000e0: 6672 5d45 c726 6144 acb8 1145 4110 eb45
000000f0: 0597 1544 ef9b ae44 a993 7d44 a46f 0b44
6833.3955 1732.564 2208.3616 1074.3746 430.29987 1585.0372 21011.584 997.7156
7854.1113 4812.228 692.3832 5787.923 1441.1355 1305.2091 19311.236 3591.4595
622.40656 3014.432 1149.7633 6326.5527 640.2167 1264.2489 760.6187 487.17163
1004.71045 6175.2104 1474.4883 507.67062 3055.4277 2184.501 576.7622 1215.9579
5205.2725 7961.3867 7739.016 1164.4131 8181.107 3352.4312 1693.6565 1674.157
6842.559 2200.392 2173.2856 4025.756 7619.9614 1058.5486 1057.6741 650.8168
3714.504 1702.1702 581.34937 21029.56 5192.249 1333.5636 4330.8613 943.8694
3543.15 900.6059 2331.542 7522.0317 598.3597 1396.8729 1014.3072 557.7444
