net_data_all_0228.pkl (torch, 243062 bytes, 32 tensors)

weight f4 [64, 1, 3]
2.9215605 -4.6895328 2.3540337 3.1884334 4.540174 0.22904532 -1.2705995 9.042621
-0.78248566 -0.8371649 5.0512195 -0.46750775 0.91044784 8.208153 0.605063 -3.8009498
-4.584401 -5.276437 0.2295822 20.194912 0.2396774 -1.2428076 -5.040727 4.511758
-2.0861757 -2.5130546 -5.555056 -3.2572777 13.826764 -2.6488478 3.5029435 -8.60661
3.1753702 4.4262133 -9.460831 3.8370657 3.876852 4.429687 -0.6204818 -0.3388626
21.93427 -1.5497314 3.4016583 4.0081477 -1.2950076 3.5696204 4.51075 -0.18204173
-0.4997277 -3.1061113 -1.5262738 2.638613 -5.0124044 2.0351517 -0.29745212 -8.178036
-7.9565034 11.630154 2.264786 -0.039805155 3.8175507 1.0648074 6.0336137 2.5519583
-4.3480387 2.0018072 1.8106577 6.641012 -6.1132245 4.2455096 0.9791736 5.965186
4.112603 -0.06785799 7.3543215 4.2105403 -5.5932355 -2.370518 0.7261776 76.96145
0.49503785 -2.747717 5.0255046 -0.58562666 1.462856 1.2187675 1.6572127 1.2326901
32.80919 0.73938715 1.2043461 5.7937174 0.7367151 -1.7652491 -13.290023 0.24443881
1.2793889 4.1335325 1.5216525 1.231678 -6.370966 -9.348666 -1.6173416 6.7290077
-0.09348523 -0.28424743 25.028164 -1.0910971 -0.53199786 4.6942453 -0.5437757 -3.8510995
-4.356105 1.1264712 -2.0828354 -2.5518813 -5.5726023 2.456473 9.62438 2.0192294
1.9042183 -3.7534986 1.9561753 1.6937418 -3.8401127 1.8678199 -0.881849 -7.531567
-0.9606253 -0.026141416 8.266653 -1.7078758 3.6434302 -5.369771 -2.0129209 0.8164138
15.131146 0.42804533 -0.07406011 19.367609 -0.34107003 0.2745341 16.827547 0.47151753
8.920693 -0.11178415 2.004443 3.6382287 -6.387549 3.236409 -0.92088485 -3.9677064
-1.1362678 -5.3407736 -18.597216 -0.09541622 -2.932517 -4.136132 -1.4069664 -0.29409507
-0.9311553 -7.9896564 3.7921882 -5.375303 -2.09814 -4.9813943 2.5061624 -4.9962435
5.6997943 -0.033630516 -1.9299519 1.7033875 6.297631 0.45641574 0.20504858 -12.820316
0.7901172 -0.9809573 -4.2338686 2.7041793 4.8954487 3.7367866 -1.9769892 -0.7849011
-2.7120807 -5.6778135 2.833255 -1.03021 2.5867636 3.5270133 2.1211164 5.2679224
00000000: d9fa 3a40 a710 96c0 7da8 1640 4b0f 4c40
00000010: 1b49 9140 db8a 6a3e 01a3 a2bf 93ae 1041
00000020: fb50 48bf 7050 56bf 97a3 a140 2d5d efbe
00000030: 1c13 693f 9854 0341 69e5 1a3f c342 73c0
00000040: 6ab3 92c0 92d8 a8c0 9917 6b3e 2e8f a141
00000050: fe6d 753e 5214 9fbf a34d a1c0 5260 9040
00000060: e783 05c0 e3d5 20c0 05c3 b1c0 3d77 50c0
00000070: 6d3a 5d41 b986 29c0 3a30 6040 adb4 09c1
00000080: 4439 4b40 8aa3 8d40 905f 17c1 7c92 7540
00000090: 581e 7840 ffbf 8d40 e5d7 1ebf 667f adbe
000000a0: 6379 af41 995d c6bf c5b4 5940 bf42 8040
000000b0: cfc2 a5bf a974 6440 1058 9040 2669 3abe
000000c0: 4fdc ffbe 87ca 46c0 f15c c3bf 09df 2840
000000d0: 9e65 a0c0 ed3f 0240 a54b 98be 3cd9 02c1
000000e0: ad9b fec0 1c15 3a41 41f2 1040 bb0a 23bd
000000f0: c052 7440 9c4b 883f 5d13 c140 4953 2340
00000100: 2223 8bc0 9c1d 0040 a2c3 e73f 2c83 d440
00000110: 899f c3c0 37db 8740 1fab 7a3f cee2 be40
00000120: 729a 8340 21f9 8abd 9a56 eb40 bfbc 8640
00000130: c9fb b2c0 91b6 17c0 c6e6 393f 43ec 9942
00000140: 9a75 fd3e 98da 2fc0 efd0 a040 a1eb 15bf
00000150: de3e bb3f 9300 9c3f 8c1f d43f cac8 9d3f
00000160: 9c3c 0342 7a48 3d3f 0328 9a3f 2266 b940
00000170: 5c99 3c3f aff3 e1bf efa3 54c1 2b4e 7a3e
00000180: 04c3 a33f e645 8440 82c5 c23f a0a7 9d3f
00000190: f4de cbc0 2394 15c1 0d05 cfbf 0854 d740
000001a0: 2f75 bfbd e188 91be ae39 c841 12a9 8bbf
000001b0: 0331 08bf 4237 9640 e234 0bbf 6a78 76c0
000001c0: 3665 8bc0 3530 903f 2d4d 05c0 0652 23c0
000001d0: c252 b2c0 db36 1d40 76fd 1941 0e3b 0140
000001e0: 6dbd f33f 5239 70c0 f463 fa3f 88cc d83f
000001f0: 68c4 75c0 b914 ef3f dbc0 61bf 9902 f1c0
00000200: 8aeb 75bf 8626 d6bc 3644 0441 ad9b dabf
00000210: f62d 6940 2ad5 abc0 b2d3 00c0 7f00 513f
00000220: 2d19 7241 c228 db3e d4ac 97bd ddf0 9a41
00000230: bba0 aebe bc8f 8c3e d19e 8641 bf6a f13e
00000240: 29bb 0e41 17ef e4bd cb48 0040 bdd8 6840
00000250: cd66 ccc0 5321 4f40 1cbf 6bbf e7ee 7dc0
00000260: 3971 91bf 9ee7 aac0 19c7 94c1 9469 c3bd
00000270: 5cae 3bc0 315b 84c0 7a17 b4bf a193 96be
00000280: 3260 6ebf 44ab ffc0 36b3 7240 7b02 acc0
00000290: ed47 06c0 9567 9fc0 f764 2040 3ae1 9fc0
000002a0: b764 b640 27c0 09bd aa08 f7bf 9a08 da3f
000002b0: 3186 c940 53af e93e 41f8 513e 0420 4dc1
000002c0: 1f45 4a3f 0520 7bbf da7b 87c0 4611 2d40
000002d0: 84a7 9c40 8327 6f40 fb0d fdbf 47ef 48bf
000002e0: bb92 2dc0 a6b0 b5c0 0d54 3540 ecdd 83bf
000002f0: 898d 2540 96ba 6140 5fc0 0740 d292 a840

bias f4 [64]
-0.27042973 0.39209694 -0.15155128 0.28050616 -0.13363841 0.2549956 -0.038942296 0.48573112
0.4579682 0.40212536 -0.33827516 0.2786997 -0.24739222 0.1956424 -0.1713564 0.45844936
0.018531732 0.12735698 0.23901965 0.05794365 0.26233327 -0.5709468 -0.24276775 0.5220799
-0.3265473 0.5729079 0.08061125 0.50503916 0.09365138 -0.011288459 0.1511339 -0.29109567
0.020359227 0.26582897 0.5351133 -0.2418758 0.02044666 -0.017712487 0.23908898 -0.012610422
0.061625827 0.36717424 0.5068827 -0.4547255 -0.17421338 0.15926114 -0.21612145 0.15340737
0.43919098 0.35350597 0.30940214 0.21442543 -0.06772725 0.19584782 0.062481444 -0.5021189
0.33629137 0.3046413 0.5254994 -0.44986883 0.083943576 0.38329002 0.09623854 -0.04945007
00000000: c475 8abe eec0 c83e 4230 1bbe 819e 8f3e
00000010: 82d8 08be c98e 823e f581 1fbd c0b1 f83e
00000020: cf7a ea3e 60e3 cd3e 6732 adbe bab1 8e3e
00000030: 6354 7dbe 7b56 483e 0d78 2fbe e0b9 ea3e
00000040: dccf 973c de69 023e 91c1 743e 5256 6d3d
00000050: 8c50 863e 9229 12bf 1c98 78be 07a7 053f
00000060: 3531 a7be 18aa 123f 8317 a53d 3f4a 013f
00000070: 4bcc bf3d 3bf3 38bc d8c2 1a3e 7e0a 95be
00000080: 65c8 a63c bc1a 883e 2ffd 083f 4aae 77be
00000090: c17f a73c c719 91bc bed3 743e f29b 4ebc
000000a0: 5d6b 7c3d 43fe bb3e 11c3 013f c8d1 e8be
000000b0: fe64 32be 5a15 233e f14e 5dbe d216 1d3e
000000c0: a4dd e03e bcfe b43e f569 9e3e 5792 5b3e
000000d0: 96b4 8abd 558c 483e 8bec 7f3d dd8a 00bf
000000e0: 622e ac3e f2f9 9b3e 2187 063f 3555 e6be
000000f0: 9cea ab3d 973e c43e b618 c53d 288c 4abd

weight f4 [64]
0.08846626 0.9787766 8.121253 5.9447255 0.18965037 9.601643 9.564588 6.586764
-6.319023 5.9091887 2.8818288 -0.01458087 1.0359969 30.379274 0.6562601 0.9866132
4.3552713 0.09723515 11.215238 1.0678619 1.1820464 0.062275883 -5.7787256 0.73511004
4.1400127 4.2095137 16.014763 1.4963684 5.463553 9.717148 0.67272437 0.6180811
0.4640414 -13.978135 24.358706 22.583117 7.9621296 -0.57960415 -5.3436584 8.896748
-0.06511159 -0.07070318 -0.22165796 11.18242 4.1378393 11.779764 11.983867 8.916152
0.8117546 0.28707802 -0.2921745 0.08569658 3.8988595 -0.41276896 4.177209 4.7487783
3.4592383 0.5921889 1.9261976 6.359837 1.0987196 -1.7829553 2.719522 2.4622717
00000000: cc2d b53d 1a91 7a3f a7f0 0141 313b be40
00000010: b533 423e 54a0 1941 8d08 1941 c5c6 d240
00000020: 7035 cac0 1318 bd40 e26f 3840 9ae4 6ebc
00000030: 8c9b 843f c108 f341 a900 283f af92 7c3f
00000040: 625e 8b40 3923 c73d 9d71 3341 b3af 883f
00000050: 4c4d 973f ff14 7f3d 52eb b8c0 2c30 3c3f
00000060: fc7a 8440 56b4 8640 3c1e 8041 0089 bf3f
00000070: 6dd5 ae40 7079 1b41 aa37 2c3f 903a 1e3f
00000080: d696 ed3e 71a6 5fc1 a1de c241 39aa b441
00000090: c4c9 fe40 f060 14bf 40ff aac0 1459 0e41
000000a0: 3a59 85bd d4cc 90bd 4efa 62be 31eb 3241
000000b0: 2e69 8440 ea79 3c41 ebbd 3f41 8fa8 0e41
000000c0: 26cf 4f3f e4fb 923e e597 95be b081 af3d
000000d0: ea86 7940 7456 d3be b2ab 8540 fef5 9740
000000e0: 2964 5d40 b199 173f a58d f63f c983 cb40
000000f0: d8a2 8c3f e137 e4bf a60c 2e40 dc95 1d40

bias f4 [64]
-4.456622 1.7062155 1.8378325 -2.5144107 -1.8910638 3.3754508 -9.432074 -5.4886494
-1.6814322 3.5004954 7.855709 5.189913 1.7072655 7.876236 -1.800623 1.8874952
-6.4546456 -4.9930844 2.3147194 -6.115071 -5.6138163 -4.580258 -5.1489854 -6.80737
-3.5912924 -4.9770827 8.923878 -11.145899 -4.445996 8.534882 1.8489343 17.645035
-3.9578435 2.6166313 -5.102293 -2.2040324 -1.5373672 -1.4150224 -0.7864435 -4.3712153
-1.4130967 -1.7965261 -0.9827779 -8.656892 -5.2420373 -9.479493 -6.200015 3.3736792
-5.348902 -5.981826 -3.3567543 20.156208 0.02335514 0.25770727 -5.089051 -5.5452952
-1.8029103 -0.017930122 -4.0102115 -7.727228 1.3403585 1.5382867 -4.6422405 -5.288683
00000000: a69c 8ec0 4565 da3f 183e eb3f 1bec 20c0
00000010: 610e f2bf 6307 5840 c6e9 16c1 04a3 afc0
00000020: 2c39 d7bf 1e08 6040 f861 fb40 c413 a640
00000030: ad87 da3f 200a fc40 d17a e6bf 7199 f13f
00000040: 758c cec0 59c7 9fc0 5d24 1440 a9ae c3c0
00000050: 62a4 b3c0 7991 92c0 7dc4 a4c0 fad5 d9c0
00000060: bcd7 65c0 4344 9fc0 34c8 0e41 9a55 32c1
00000070: 9945 8ec0 e08e 0841 e1a9 ec3f 0829 8d41
00000080: 4f4d 7dc0 e376 2740 fc45 a3c0 de0e 0dc0
00000090: 73c8 c4bf 741f b5bf 5c54 49bf ffe0 8bc0
000000a0: 5ae0 b4bf 91f4 e5bf 5597 7bbf a182 0ac1
000000b0: c5be a7c0 01ac 17c1 8666 c6c0 5cea 5740
000000c0: 352a abc0 1e6b bfc0 10d5 56c0 ea3f a141
000000d0: 4753 bf3c 35f2 833e 81d9 a2c0 0f73 b1c0
000000e0: c4c5 e6bf 31e2 92bc a753 80c0 7445 f7c0
000000f0: de90 ab3f 94e6 c43f 3c8d 94c0 e43c a9c0

running_mean f4 [64]
72.18695 -417.11118 -469.35107 -255.17947 -564.01306 649.771 -1254.8656 177.34755
464.28897 -605.31964 255.10008 242.52003 -404.81433 -1264.9141 -332.38144 -414.21005
272.2982 116.820335 834.73895 -613.36035 -465.21994 80.35923 -233.41232 -474.4587
-462.02188 266.65323 -4758.864 -170.76581 -201.01163 -2087.9084 -433.2825 875.1595
-366.9273 718.0801 -340.99048 -1475.7075 -242.75938 378.63483 466.98886 -771.21515
72.043655 89.88221 536.14636 -435.86765 260.96988 -976.40924 -1167.7946 -1059.8237
-439.05295 111.752426 326.78687 1360.4995 429.95435 392.39392 258.9118 252.45506
-153.1631 -473.10898 744.516 189.6614 -348.84045 428.1459 -157.41895 -487.1666
00000000: b85f 9042 3b8e d0c3 f0ac eac3 f22d 7fc3
00000010: d600 0dc4 5871 2244 b3db 9cc4 f958 3143
00000020: fd24 e843 7554 17c4 9f19 7f43 2185 7243
00000030: 3c68 cac3 401d 9ec4 d330 a6c3 e31a cfc3
00000040: 2b26 8843 03a4 e942 4baf 5044 1057 19c4
00000050: 279c e8c3 edb7 a042 8e69 69c3 b73a edc3
00000060: cd02 e7c3 9d53 8543 e9b6 94c5 0cc4 2ac3
00000070: fa02 49c3 897e 02c5 29a4 d8c3 35ca 5a44
00000080: b276 b7c3 2085 3344 c87e aac3 a476 b8c4
00000090: 67c2 72c3 4251 bd43 937e e943 c5cd 40c4
000000a0: 5a16 9042 b1c3 b342 5e09 0644 0fef d9c3
000000b0: 257c 8243 311a 74c4 6df9 91c4 5c7a 84c4
000000c0: c786 dbc3 3e81 df42 b864 a343 fc0f aa44
000000d0: 28fa d643 6c32 c443 b674 8143 7f74 7c43
000000e0: c129 19c3 f38d ecc3 0621 3a44 52a9 3d43
000000f0: 946b aec3 ad12 d643 406b 1dc3 5395 f3c3

running_var f4 [64]
9442.015 11743.443 10940.957 3540.863 9607.966 27727.324 51895.227 25896.135
24925.266 30494.137 18960.734 26592.037 18594.805 60077.168 17419.416 15027.346
3320.1104 8338.161 68612.484 126089.83 29382.426 7350.007 48317.656 30010.166
41332.09 33600.582 750800.1 8839.346 2953.9146 139174.4 5767.723 25621.771
4779.0005 98642.375 7823.647 77915.49 2874.614 20442.885 25129.41 18797.775
5127.0156 4656.399 8640.313 10241.903 25622.727 30004.824 46886.08 36500.562
63223.613 16060.607 3499.0188 71010.28 9300.1 56821.457 27463.053 26174.033
41834.83 7614.675 20467.111 11072.691 34599.535 28408.06 7756.0283 23805.559
00000000: 0f88 1346 c67d 3746 d4f3 2a46 cf4d 5d45
00000010: dd1f 1646 a69e d846 3ab7 4a47 4550 ca46
00000020: 88ba c246 463c ee46 7821 9446 13c0 cf46
00000030: 9c45 9146 2bad 6a47 d516 8846 62cd 6a46
00000040: c481 4f45 a548 0246 3e02 8647 ea44 f647
00000050: da8c e546 0eb0 e545 a8bd 3c47 5574 ea46
00000060: 1774 2147 9540 0347 024d 3749 621d 0a46
00000070: a29e 3845 9ae9 0748 c93d b445 8b2b c846
00000080: 0158 9545 30a9 c047 2d7d f445 bf2d 9847
00000090: d3a9 3345 c5b5 9f46 d252 c446 8ddb 9246
000000a0: 2038 a045 3183 9145 4101 0746 9d07 2046
000000b0: 742d c846 a669 ea46 1426 3747 9094 0e47
000000c0: 9df7 7647 6ef2 7a46 4db0 5a45 24b1 8a47
000000d0: 6650 1146 75f5 5d47 1b8e d646 117c cc46
000000e0: d46a 2347 66f5 ed45 39e6 9f46 c402 2d46
000000f0: 8927 0747 1ff0 dd46 3a60 f245 1efb b946

weight f4 [128, 64, 3]
-1.0260701 0.6620062 -3.7257016 -1.0539093 -0.31601676 -6.5847373 4.132139 -2.69972
-5.786282 1.8806598 3.9842463 4.1044655 -4.294763 -0.58748025 -6.4308643 -0.118471615
3.4084704 9.913621 -6.715312 -7.6241236 3.6183999 14.009347 4.8692327 1.794176
-1.9839356 6.556831 1.8197118 3.6348314 1.5961024 -3.443653 8.403147 -1.4726497
-3.3683183 6.311668 -3.8996234 -4.488747 -1.1662003 -0.24386492 -7.261271 -7.317185
-3.5900352 4.103883 -2.2321403 -1.12273 -6.688936 -0.72678226 -0.22276105 -6.941853
-1.4036945 -5.8065047 -2.59729 -0.7323024 1.092852 -3.0966473 0.9371174 -6.2281103
13.251508 3.7362452 -3.602738 -2.2418642 -2.9984431 2.229146 -4.973377 -0.7069916
1.094252 -3.1599786 11.139158 5.4834943 2.3368976 -1.8813995 1.7833596 -4.2876773
-3.596338 0.6266211 -4.119084 3.1170948 -2.7812598 -4.834273 -3.8170192 -3.8807957
1.1787186 1.7275972 1.1587607 -2.6955614 -2.6808293 4.8415637 -5.131643 -0.8750266
0.35186157 -2.616021 -1.9572794 0.106002145 -5.603358 8.954253 -2.4480526 -4.185339
-2.2181342 -0.5476314 -6.089494 2.3853643 -2.8491108 5.6735787 1.1754377 -3.2488575
5.8746386 -4.770279 -1.6401628 9.117588 1.4677734 0.2202765 4.3495746 -1.8455012
-0.52766925 -6.8931746 -1.9538267 7.7652564 1.658669 -4.339347 -6.6075945 0.5845135
0.5431365 0.763607 -3.707927 0.7253125 0.8865957 -3.8323622 -3.7996323 0.4423668
-5.8220005 -4.690322 12.883833 1.2339787 1.1478938 -3.6374912 -3.636962 -10.02945
-2.156091 9.8331995 -1.8842975 0.3096691 2.5788245 -2.2631927 -2.7230303 2.4533563
-1.6761162 -2.4596627 -1.3098708 4.875347 -0.588457 -2.3663783 -2.982874 -0.395465
-6.998539 7.970673 -0.8985088 -5.72744 6.8562183 -1.1157539 -6.3258286 0.61349696
2.9146187 -0.909379 2.198821 -3.30706 -4.4332647 3.7009969 -8.198736 14.180592
2.451241 0.39312485 -5.0192275 -3.0960183 -0.5507301 -6.194459 -0.8833658 0.3785646
-1.7157283 11.465782 4.9164453 -4.2823596 -0.4395338 0.024754267 -7.669185 -1.022304
5.1944695 0.25697473 -3.4619017 -0.33084682 -3.2701733 -3.3579419 2.0788522 -5.024194
-2.3665934 0.15036224 -0.55193955 -2.2223709 7.43071 -0.03560785 -0.033735633 -1.2888622
-1.7613174 -2.1288078 -4.3735366 -6.031972 -2.0785584 7.3474913 -1.5976267 -8.768397
-5.6857457 3.284087 3.5157716 5.537354 7.0425525 4.3614817 -3.086107 1.1147997
2.1241493 1.9923183 -1.5074257 -3.5417302 1.7056875 0.68779004 -0.9061648 -5.3181896
0.343557 -1.2931302 -3.8772478 2.9794686 -2.113734 6.780816 1.6378539 -1.1722453
-0.8343247 -0.7728227 -2.952081 7.332961 0.31588393 -2.2096193 6.835039 0.88963455
8.162294 -6.1085057 -2.788883 -2.0425127 0.13640144 -0.7973489 -0.25441837 0.538745
6.599239 -1.0610827 5.6530995 2.3811038 -0.8800871 -1.3020923 -0.45842806 -2.0717127
00000000: 4456 83bf 3d79 293f e571 6ec0 80e6 86bf
00000010: f3cc a1be 2bb6 d2c0 7c3a 8440 36c8 2cc0
00000020: 3929 b9c0 76b9 f03f e4fd 7e40 c857 8340
00000030: b36e 89c0 1b65 16bf a4c9 cdc0 3fa1 f2bd
00000040: 6124 5a40 319e 1e41 d6e3 d6c0 d2f8 f3c0
00000050: dd93 6740 4926 6041 c1d0 9b40 8fa7 e53f
00000060: 9af1 fdbf 8fd1 d140 51ec e83f 14a1 6840
00000070: 154d cc3f d064 5cc0 4a73 0641 c97f bcbf
00000080: 8792 57c0 2ff9 c940 6e93 79c0 d1a3 8fc0
00000090: 0d46 95bf bab7 79be 555c e8c0 6126 eac0
000000a0: 23c3 65c0 0253 8340 63db 0ec0 9eb5 8fbf
000000b0: c40b d6c0 670e 3abf 791b 64be a923 dec0
000000c0: 43ac b3bf e3ce b9c0 003a 26c0 2c78 3bbf
000000d0: 93e2 8b3f 782f 46c0 ede6 6f3f ae4c c7c0
000000e0: 2d06 5441 a41e 6f40 4293 66c0 b47a 0fc0
000000f0: 7ee6 3fc0 54aa 0e40 e825 9fc0 67fd 34bf
00000100: 7310 8c3f 173d 4ac0 fe39 3241 c978 af40
00000110: bb8f 1540 b3d1 f0bf 2145 e43f a734 89c0
00000120: 672a 66c0 3e6a 203f 89cf 83c0 7b7e 4740
00000130: 2900 32c0 5db2 9ac0 0b4a 74c0 f55e 78c0
00000140: 40e0 963f e821 dd3f 4552 943f 1484 2cc0
00000150: b592 2bc0 17ee 9a40 6b36 a4c0 be01 60bf
00000160: 3327 b43e e36c 27c0 2288 fabf a717 d93d
00000170: b54e b3c0 9f44 0f41 e5ac 1cc0 4cee 85c0
00000180: e9f5 0dc0 9231 0cbf 23dd c2c0 cfa9 1840
00000190: d557 36c0 f58d b540 be74 963f 48ed 4fc0
000001a0: 0afd bb40 20a6 98c0 dbf0 d1bf a4e1 1141
000001b0: 00e0 bb3f 2a90 613e b72f 8b40 6239 ecbf
000001c0: 5515 07bf e394 dcc0 fe16 fabf fb7c f840
000001d0: 444f d43f eedb 8ac0 6a71 d3c0 ada2 153f
000001e0: fe0a 0b3f c07b 433f ad4e 6dc0 14ae 393f
000001f0: f0f7 623f 6c45 75c0 2d2d 73c0 e77d e23e
00000200: d44d bac0 1e17 96c0 2e24 4e41 04f3 9d3f
00000210: 2fee 923f a8cc 68c0 fcc3 68c0 a178 20c1
00000220: 65fd 09c0 c954 1d41 a930 f1bf f38c 9e3e
00000230: 760b 2540 26d8 10c0 2146 2ec0 ca03 1d40
00000240: fa8a d6bf 1d6b 1dc0 d9a9 a7bf d802 9c40
00000250: 1ea5 16bf be72 17c0 68e7 3ec0 637a cabe
00000260: 08f4 dfc0 c10f ff40 ac04 66bf 3047 b7c0
00000270: 2466 db40 06d1 8ebf 306d cac0 230e 1d3f
00000280: 1d89 3a40 10cd 68bf 7cb9 0c40 dfa6 53c0
00000290: 4edd 8dc0 22dd 6c40 062e 03c1 b4e3 6241
000002a0: 22e1 1c40 a947 c93e 839d a0c0 2a25 46c0
000002b0: a6fc 0cbf 0239 c6c0 4324 62bf 38d3 c13e
000002c0: fc9c dbbf d873 3741 8553 9d40 1709 89c0
000002d0: 930a e1be 76c9 ca3c f769 f5c0 dcda 82bf
000002e0: 1839 a640 3192 833e cc8f 5dc0 c164 a9be
000002f0: 854a 51c0 85e8 56c0 ea0b 0540 32c6 a0c0
00000300: 4476 17c0 8ff8 193e e94b 0dbf 533b 0ec0
00000310: 60c8 ed40 89d9 11bd 602e 0abd 70f9 a4bf
00000320: d972 e1bf 633e 08c0 03f4 8bc0 ea05 c1c0
00000330: 1a07 05c0 a61e eb40 087f ccbf 5b4b 0cc1
00000340: a1f1 b5c0 7b2e 5240 6702 6140 0132 b140
00000350: 975c e140 4291 8b40 c782 45c0 c2b1 8e3f
00000360: 10f2 0740 4904 ff3f 53f3 c0bf b5ab 62c0
00000370: f853 da3f 0213 303f 6bfa 67bf 9c2e aac0
00000380: b4e6 af3e 4a85 a5bf d424 78c0 9daf 3e40
00000390: 6b47 07c0 72fc d840 32a5 d13f 220c 96bf
000003a0: 4e96 55bf b5d7 45bf e5ee 3cc0 9ea7 ea40
000003b0: 8abb a13e 676a 0dc0 a4b8 da40 17bf 633f
000003c0: c298 0241 e178 c3c0 0f7d 32c0 87b8 02c0
000003d0: d2ac 0b3e 0f1f 4cbf 2043 82be 31eb 093f
000003e0: f72c d340 8fd1 87bf 31e6 b440 0164 1840
000003f0: 634d 61bf f6aa a6bf 15b7 eabe f196 04c0

bias f4 [128]
-0.059416916 0.03661114 -0.071420856 0.03103868 0.03791223 0.012976503 0.012759174 0.017669095
0.06009833 0.04806313 -0.055304475 -0.039517835 0.005167258 -0.044508252 0.015882915 0.0022577557
0.014579513 0.012001798 0.04322873 0.061690617 -0.023155954 0.032697547 0.05220659 -0.03123254
0.03380871 -0.004714572 0.03863523 -0.03178201 -0.05631649 -0.034104288 -0.055710882 0.034136422
-0.051584255 0.068835266 0.029768258 0.054569427 -0.07161075 -0.0017497224 0.032403518 0.066548064
-0.007251415 0.0032587328 -0.0551324 -0.008125356 -0.03878034 0.063325204 0.06199917 -0.010548767
0.06888834 -0.035403945 0.0017145801 -0.049806684 -0.042216003 -0.020602677 0.012093337 0.0628441
0.029653894 0.07228638 0.013532437 0.01857923 -0.054488935 -0.06783434 0.029239709 0.061270278
-0.047845457 -0.04560434 -0.053222448 -0.04192551 -0.038571727 0.0020704179 -0.05096633 -0.019377306
-0.021587966 -0.05335298 -0.025747536 0.011003968 -0.0025321133 -0.048087593 -0.04175508 -0.031428047
-0.06671332 0.03494072 0.058024585 0.031152131 0.0036152392 0.0035080398 -0.00909551 0.033527046
-0.035574686 0.00566425 -0.06948232 -0.015036869 0.042286515 0.06650826 -0.045576245 -0.060113393
-0.031827748 0.04286096 -0.032745093 0.01675962 -0.052525003 -0.04901031 0.001161324 -0.047561627
-0.035174817 0.06338625 0.011341903 -0.025188923 0.06625934 0.055315275 0.00271496 -0.03038002
0.051600832 0.04092794 -0.050917514 -0.05681754 0.06380696 0.052425016 0.0112386225 -0.015736701
0.009659406 0.06950002 0.04633766 0.023312185 -0.0017378114 -0.010118091 -0.06798208 0.07150617
00000000: 275f 73bd 90f5 153d 1945 92bd d444 fe3c
00000010: db49 1b3d 669b 543c db0b 513c c7be 903c
00000020: ab29 763d d8dd 443d f286 62bd 74dd 21bd
00000030: 1a52 a93b 494e 36bd e31c 823c dbf6 133b
00000040: e9de 6e3c 30a3 443c 9c10 313d 4daf 7c3d
00000050: 8eb1 bdbc dded 053d 94d6 553d 62db ffbc
00000060: 007b 0a3d b27c 9abb fa3f 1e3d da2d 02bd
00000070: 1fac 66bd f0b0 0bbd 1831 64bd a2d2 0b3d
00000080: 034a 53bd 81f9 8c3d 90dc f33c 3184 5f3d
00000090: a8a8 92bd f156 e5ba 8db9 043d 5a4a 883d
000000a0: 479d edbb 7790 553b 83d2 61bd 3720 05bc
000000b0: 22d8 1ebd a5b0 813d d7f2 7d3d bcd4 2cbc
000000c0: 5415 8d3d ba03 11bd c3bb e03a 1802 4cbd
000000d0: b0ea 2cbd f2c6 a8bc 2223 463c 68b4 803d
000000e0: b9ec f23c e20a 943d 28b7 5d3c 7833 983c
000000f0: ca2f 5fbd bbec 8abd 1d88 ef3c 8bf6 7a3d
00000100: 99f9 43bd 9ecb 3abd c8ff 59bd 15ba 2bbd
00000110: 63fd 1dbd d9af 073b 12c2 50bd 28bd 9ebc
00000120: 3fd9 b0bc a888 5abd 7fec d2bc fd49 343c
00000130: d0f1 25bb 7ff7 44bd 6007 2bbd b2ba 00bd
00000140: fea0 88bd 001e 0f3d 30ab 6d3d c132 ff3c
00000150: a6ed 6c3b 24e7 653b 5505 15bc a853 093d
00000160: c3b6 11bd 2c9b b93b bf4c 8ebd 335d 76bc
00000170: a034 2d3d 7c35 883d 28ae 3abd 7639 76bd
00000180: d05d 02bd f98e 2f3d b81f 06bd 784b 893c
00000190: 7524 57bd 09bf 48bd 9137 983a fbcf 42bd
000001a0: 7813 10bd a6d0 813d 64d3 393c 0059 cebc
000001b0: fab2 873d 4592 623d 78ed 313b 85df f8bc
000001c0: 655b 533d 0ea4 273d e28e 50bd 82b9 68bd
000001d0: 39ad 823d 9dbb 563d 3322 383c 41ea 80bc
000001e0: 7c42 1e3c 0756 8e3d 8fcc 3d3d 32f9 be3c
000001f0: 46c7 e3ba 59c6 25bc 303a 8bbd d471 923d

weight f4 [128]
11.046314 -3.9730372 14.707206 11.48463 10.372939 5.8437557 0.8137172 9.977926
6.94941 0.27792662 -5.4274964 11.516053 -12.198883 60.369915 21.24251 10.386939
9.398199 5.4119854 1.589604 19.905218 2.8516414 4.6479177 5.5604258 -3.4554033
20.623909 6.7249866 -3.185308 -6.423785 16.73624 -8.675955 2.9336393 3.4073472
-0.080267735 2.5023184 5.2556033 3.6458285 15.329232 5.93954 13.5370865 18.536146
11.7449465 13.779499 -3.0249674 -4.0307794 -5.535304 21.991571 4.7241507 9.745534
8.720492 -11.045776 -0.09938809 5.752886 17.189436 27.464598 0.8802601 4.9778385
9.581204 -1.4892415 53.44152 6.268848 7.519179 5.4931073 4.965681 23.52067
-3.1244848 6.4450283 -3.4701076 3.7803185 7.053966 10.631303 16.596054 9.752302
12.244771 44.503803 20.362154 26.24051 6.75151 -2.9761035 -4.9018555 5.182385
7.7436953 7.37233 9.555235 1.0279062 20.16332 2.737325 7.861407 -2.590781
26.225983 -3.666115 5.8799276 4.4193187 -3.07985 9.479902 -3.2798944 8.914859
6.186404 6.404752 5.212484 -5.8443093 85.240166 8.59541 3.0633793 -3.6019545
11.8689 17.538223 1.0356647 4.2460346 5.2590528 7.04068 6.1671705 -1.8416715
6.3609543 3.6838906 -3.2177472 18.592093 3.5012705 6.295989 10.7068405 7.0512447
-8.845055 4.280588 35.21275 37.686943 -7.2640557 20.167786 6.739863 9.233192
00000000: b4bd 3041 3e46 7ec0 b750 6b41 0bc1 3741
00000010: 8ff7 2541 0c00 bb40 c54f 503f 96a5 1f41
00000020: 9161 de40 664c 8e3e 0dae adc0 c141 3841
00000030: a02e 43c1 cb7a 7142 a9f0 a941 e730 2641
00000040: 065f 1641 fc2e ad40 2578 cb3f e33d 9f41
00000050: 4b81 3640 bebb 9440 02ef b140 5425 5dc0
00000060: c4fd a441 1733 d740 16dc 4bc0 a68f cdc0
00000070: d2e3 8541 b6d0 0ac1 bfc0 3b40 fa11 5a40
00000080: 6963 a4bd fc25 2040 e72d a840 4155 6940
00000090: 8944 7541 b610 be40 e897 5841 074a 9441
000000a0: 4deb 3b41 d478 5c41 1199 41c0 25fc 80c0
000000b0: 3621 b1c0 bdee af41 3e2c 9740 b5ed 1b41
000000c0: 2387 0b41 80bb 30c1 fc8b cbbd a417 b840
000000d0: f783 8941 7fb7 db41 ba58 613f 744a 9f40
000000e0: 9d4c 1941 779f bebf 1ec4 5542 679a c840
000000f0: 1d9d f040 89c7 af40 dce6 9e40 552a bc41
00000100: 8ff7 47c0 ac3d ce40 3e16 5ec0 bdf0 7140
00000110: 17ba e140 d119 2a41 b8c4 8441 6e09 1c41
00000120: 95ea 4341 e503 3242 b1e5 a241 91ec d141
00000130: 5f0c d840 7b78 3ec0 00dc 9cc0 19d6 a540
00000140: 5acc f740 21ea eb40 3ee2 1841 6e92 833f
00000150: 7b4e a141 5530 2f40 a590 fb40 5bcf 25c0
00000160: d0ce d141 a1a1 6ac0 5e28 bc40 0f6b 8d40
00000170: 431c 45c0 aead 1741 cae9 51c0 43a3 0e41
00000180: 06f7 c540 baf3 cc40 abcc a640 9504 bbc0
00000190: f77a aa42 cd86 0941 680e 4440 6c86 66c0
000001a0: 04e7 3d41 484e 8c41 a990 843f 84df 8740
000001b0: 294a a840 404d e140 7659 c540 e4bb ebbf
000001c0: f08c cb40 ddc4 6b40 92ef 4dc0 9bbc 9441
000001d0: d114 6040 be78 c940 384f 2b41 cca3 e140
000001e0: 5885 0dc1 94fa 8840 dbd9 0c42 6ebf 1642
000001f0: 2573 e8c0 a057 a141 f5ac d740 28bb 1341

bias f4 [128]
-10.719391 7.3494334 2.788932 -9.85575 -3.0635204 -4.5598736 -9.067399 2.836902
-5.576995 -9.156386 13.634255 -7.7588544 -8.692161 0.4735049 -3.602152 3.8348503
-4.861796 9.144738 -6.0035954 -3.6365142 12.75382 -4.6455574 -6.3805513 -4.756325
2.1214688 -4.433396 -3.4782536 15.756938 -11.844734 18.03452 12.76116 -4.6748943
-9.566869 -4.835123 18.291153 -4.7296524 0.7061265 -5.903771 1.6547837 18.88831
-0.21454716 -0.9923422 -4.7172117 -3.9072175 -3.65093 -1.3414627 -3.220874 -8.745941
-8.5960655 20.639174 -8.284912 -7.062455 -3.115732 -5.5808606 -3.9920368 -6.985418
-9.484208 -5.0888762 -1.0795103 -3.7346406 -3.9554 -7.6422825 -8.904562 -5.1633096
-8.246643 -6.0169134 10.354189 -6.307889 4.7743306 -8.362954 3.694923 -11.16778
-11.165587 1.4948596 12.297943 -7.2661114 -6.21376 9.748486 13.965161 -7.280817
-6.5415754 -6.257604 -7.166556 -8.011972 14.001219 -5.3505435 -7.8940616 10.823673
14.74234 1.4452142 -3.030409 -3.0242994 -2.50684 -1.2983413 -4.4108653 -3.4339643
-7.5811515 -8.4626465 -6.2416463 16.092728 5.675784 -4.4427915 13.852424 -3.4053323
-0.9800248 -1.1225275 -7.6385307 -2.7251244 -5.3454885 -1.0389165 -5.37891 8.430444
-5.886284 -6.6129375 12.280372 -0.9895634 -4.315539 -8.1704235 -9.203765 -4.5955944
-0.4389105 -5.1867766 -1.2835251 0.6594439 18.628426 -0.08466191 -6.426799 -10.297717
00000000: a082 2bc1 8f2e eb40 dd7d 3240 27b1 1dc1
00000010: b810 44c0 7cea 91c0 1114 11c1 cd8f 3540
00000020: be76 b2c0 8f80 12c1 e925 5a41 8948 f8c0
00000030: 1713 0bc1 3c6f f23e a989 66c0 306e 7540
00000040: d593 9bc0 d950 1241 741d c0c0 a6bc 68c0
00000050: a60f 4c41 68a8 94c0 7a2d ccc0 d033 98c0
00000060: 25c6 0740 61de 8dc0 b59b 5ec0 6b1c 7c41
00000070: 0884 3dc1 b246 9041 b62d 4c41 bc98 95c0
00000080: e511 19c1 54b9 9ac0 4854 9241 5059 97c0
00000090: b5c4 343f b1eb bcc0 f4cf d33f 421b 9741
000000a0: 40b2 5bbe 230a 7ebf 66f3 96c0 da0f 7ac0
000000b0: d6a8 69c0 0db5 abbf cd22 4ec0 60ef 0bc1
000000c0: 7c89 09c1 071d a541 008f 04c1 a2ff e1c0
000000d0: 2768 47c0 6996 b2c0 887d 7fc0 8b88 dfc0
000000e0: 51bf 17c1 13d8 a2c0 652d 8abf 5a04 6fc0
000000f0: 4625 7dc0 948d f4c0 1679 0ec1 d539 a5c0
00000100: 40f2 03c1 8e8a c0c0 c2aa 2541 3ada c9c0
00000110: 51c7 9840 a9ce 05c1 9e79 6c40 3aaf 32c1
00000120: 3fa6 32c1 8f57 bf3f 60c4 4441 fc83 e8c0
00000130: 1fd7 c6c0 ccf9 1b41 4d71 5f41 74fc e8c0
00000140: 9654 d1c0 4b3e c8c0 6d54 e5c0 0a31 00c1
00000150: fe04 6041 a737 abc0 279c fcc0 c42d 2d41
00000160: a0e0 6b41 c7fc b83f 39f2 41c0 1f8e 41c0
00000170: 1170 20c0 0c30 a6bf cf25 8dc0 12c6 5bc0
00000180: cb98 f2c0 0067 07c1 91bb c7c0 e8bd 8041
00000190: 06a0 b540 592b 8ec0 87a3 5d41 f7f0 59c0
000001a0: e8e2 7abf fbae 8fbf d86e f4c0 7068 2ec0
000001b0: 3e0e abc0 37fb 84bf 0820 acc0 19e3 0641
000001c0: 705c bcc0 2f9d d3c0 677c 4441 0754 7dbf
000001d0: e518 8ac0 0eba 02c1 9f42 13c1 1c0f 93c0
000001e0: e1b8 e0be 13fa a5c0 8d4a a4bf 51d1 283f
000001f0: 0407 9541 3963 adbd 56a8 cdc0 73c3 24c1

running_mean f4 [128]
-42.458492 -395.43588 -1306.7885 351.37268 -329.0499 -77.02418 -708.83813 -133.59499
98.8875 -185.17383 -491.24753 1113.4268 -283.15576 794.76483 -6.724286 213.41223
245.21638 -165.99869 -371.3175 815.45905 199.39407 -1054.9491 -90.573326 -518.9495
-69.43441 207.24806 64.860054 -411.56476 1089.6625 -493.29388 216.1122 -41.99535
697.9889 793.6049 35.771633 -1763.3522 -5.085861 -954.7982 -232.92836 684.6352
-98.50681 -548.287 -460.4184 -199.30504 -355.45074 160.37796 -1939.3383 64.19333
311.8116 -372.6611 -177.13934 229.6049 500.1309 250.07951 83.984535 828.51465
-46.28801 300.76834 472.68063 -30.842659 314.2582 74.102905 1121.0044 802.57117
-147.06505 -1022.7746 188.70476 426.06006 -1987.9783 550.48566 -306.07413 -184.31952
-154.39363 799.3208 -681.59 96.95686 446.63303 -179.37326 -30.365292 328.58725
153.36699 -199.43294 302.84286 -463.08347 600.06604 -1039.4895 790.6556 -367.39026
-775.1796 -200.54893 488.21597 -202.97054 -75.49174 162.13496 -181.36841 673.8531
169.26164 -693.7448 -810.26025 -360.14816 996.1361 -705.6802 185.1566 -32.420494
-321.39062 -464.11267 -304.7437 -2039.0201 279.91776 -1851.452 339.52258 153.10391
-40.122105 -428.89047 -174.44862 368.9771 -1754.9146 -131.0131 361.728 596.0238
-536.6325 237.81548 66.318504 431.83237 -305.7869 -888.17834 -666.591 -445.46417
00000000: 7fd5 29c2 cbb7 c5c3 3b59 a3c4 b4af af43
00000010: 6386 a4c3 610c 9ac2 a435 31c4 5198 05c3
00000020: 66c6 c542 802c 39c3 af9f f5c3 a82d 8b44
00000030: f093 8dc3 f3b0 4644 5a2d d7c0 8869 5543
00000040: 6537 7543 aaff 25c3 a4a8 b9c3 61dd 4b44
00000050: e264 4743 5fde 83c4 8b25 b5c2 c5bc 01c4
00000060: 6bde 8ac2 813f 4f43 59b8 8142 4ac8 cdc3
00000070: 3335 8844 9ea5 f6c3 b91c 5843 3dfb 27c2
00000080: 4a7f 2e44 b766 4644 2716 0f42 456b dcc4
00000090: 60bf a2c0 16b3 6ec4 a9ed 68c3 a728 2b44
000000a0: 7d03 c5c2 5e12 09c4 8e35 e6c3 174e 47c3
000000b0: b2b9 b1c3 c260 2043 d36a f2c4 fc62 8042
000000c0: e3e7 9b43 9f54 bac3 ac23 31c3 db9a 6543
000000d0: c110 fa43 5b14 7a43 15f8 a742 f020 4f44
000000e0: ec26 39c2 5962 9643 1f57 ec43 c4bd f6c1
000000f0: 0d21 9d43 b034 9442 2420 8c44 8ea4 4844
00000100: a710 13c3 93b1 7fc4 6bb4 3c43 b007 d543
00000110: 4e7f f8c4 159f 0944 7d09 99c3 cc51 38c3
00000120: c564 1ac3 88d4 4744 c365 2ac4 eae9 c142
00000130: 0751 df43 8e5f 33c3 1eec f2c1 2b4b a443
00000140: f35d 1943 d56e 47c3 e36b 9743 af8a e7c3
00000150: 3a04 1644 aaef 81c4 f5a9 4544 f4b1 b7c3
00000160: 7fcb 41c4 878c 48c3 a51b f443 75f8 4ac3
00000170: c5fb 96c2 8d22 2243 505e 35c3 9976 2844
00000180: fb42 2943 ab6f 2dc4 a890 4ac4 f712 b4c3
00000190: b608 7944 886b 30c4 1728 3943 96ae 01c2
000001a0: 00b2 a0c3 6c0e e8c3 325f 98c3 a5e0 fec4
000001b0: 79f5 8b43 776e e7c4 e4c2 a943 9a1a 1943
000001c0: 097d 20c2 fb71 d6c3 d972 2ec3 127d b843
000001d0: 445d dbc4 5b03 03c3 2fdd b443 8601 1544
000001e0: 7b28 06c4 c3d0 6d43 13a3 8442 8bea d743
000001f0: b9e4 98c3 6a0b 5ec4 d3a5 26c4 6abb dec3

running_var f4 [128]
117799.27 66609.01 528561.9 65926.57 61390.742 12566.878 425540.78 19333.844
33443.684 75771.64 32213.686 361818.25 26581.395 52719.336 148149.25 225565.67
16132.262 259669.86 61050.1 118967.24 128163.62 633072.2 35097.12 70147.63
31590.84 295689.16 171469.78 35670.65 284213.7 47922.73 122881.78 11000.21
85201.86 45112.97 81444.086 1.1626746e+06 105473.87 458593.12 39788.137 387347.12
130370.25 89382.42 97673.93 179104.58 55388.887 63705.47 1.4300545e+06 21694.818
25417.201 33076.426 102113.14 25150.213 25362.748 18680.346 140324.48 129437.15
49625.5 226340.25 80982.33 22596.76 68620.44 46925.867 78885.01 90541.74
36520.695 358975.97 318773.28 212294.02 1.2045621e+06 165977.77 89015.14 28781.746
60000.582 112882.04 80271.51 24384.184 107826.18 68331.61 212861.92 42079.105
125594.35 12382.942 56616.3 105445.516 177955.53 868059.44 163108.05 103367.33
383605.28 108966.73 149489.95 215625.23 297166.56 41436.383 66377.55 236688.02
62417.273 54041.188 339296.97 79057.57 131403.44 235626.28 131967.08 47193.953
102776.31 45556.87 95208.88 1.5893624e+06 247711.17 949802.4 71802.93 226640.42
164189.95 255069.7 138005.88 176836.5 1.2522074e+06 20598.096 30802.834 93318.125
94862.555 274812.75 22891.604 155219.44 44478.246 354484.72 189804.06 62554.203
00000000: a313 e647 8118 8247 1e0b 0149 49c3 8047
00000010: bece 6f47 835b 4446 99c8 cf48 b00b 9746
00000020: afa3 0247 d2fd 9347 5fab fb46 48ab b048
00000030: caaa cf46 56ef 4d47 50ad 1048 6b47 5c48
00000040: 0c11 7c46 7795 7d48 1a7a 6e47 9f5b e847
00000050: cf51 fa47 038f 1a49 1f19 0947 d101 8947
00000060: aecd f646 2561 9048 7273 2748 a656 0b47
00000070: b6c6 8a48 bb32 3b47 e400 f047 d7e0 2b46
00000080: ee68 a647 f838 3047 0b12 9f47 95ed 8d49
00000090: ef00 ce47 24ec df48 236c 1b47 6422 bd48
000000a0: 20a1 fe47 3693 ae47 f7c4 be47 25e8 2e48
000000b0: e35c 5847 78d9 7847 3491 ae49 a37d a946
000000c0: 6792 c646 6d34 0147 9270 c747 6d7c c446
000000d0: 7f25 c646 b1f0 9146 1f09 0948 93ce fc47
000000e0: 80d9 4147 1009 5d48 2a2b 9e47 8589 b046
000000f0: 3806 8647 de4d 3747 8112 9a47 dfd6 b047
00000100: b2a8 0e47 ff47 af48 a9a6 9b48 8151 4f48
00000110: 910a 9349 7116 2248 92db ad47 7edb e046
00000120: 9560 6a47 0579 dc47 c1c7 9c47 5e80 be46
00000130: 1799 d247 ce75 8547 7bdf 4f48 1b5f 2447
00000140: 2d4d f547 c57b 4146 4d28 5d47 c2f2 cd47
00000150: e2c8 2d48 b7ed 5349 0349 1f48 aae3 c947
00000160: a94e bb48 5dd3 d447 7dfc 1148 4f92 5248
00000170: d219 9148 62dc 2147 c6a4 8147 0124 6748
00000180: 46d1 7347 3019 5347 1fac a548 c968 9a47
00000190: dc52 0048 921a 6648 c5df 0048 f459 3847
000001a0: 28bc c847 dff4 3147 71f4 b947 9303 c249
000001b0: cbe7 7148 a6e2 6749 773d 8c47 1b54 5d48
000001c0: 7d57 2048 6d17 7948 78c5 0648 20b1 2c48
000001d0: 7bdb 9849 31ec a046 aba5 f046 1043 b647
000001e0: 4747 b947 982f 8648 35d7 b246 dc94 1748
000001f0: 3fbe 2d47 9716 ad48 045b 3948 345a 7447

weight f4 [64, 128, 3]
-13.968317 -8.214089 -10.628324 1.4583797 -1.2308134 1.1053238 1.4730744 -15.046904
-8.192931 -10.897356 2.4193954 2.9179795 9.707069 -3.5823298 4.862056 -2.7753253
0.2725095 0.5177925 -0.20463237 -15.37953 5.138381 2.7020423 -0.50853115 9.369911
-5.1287103 -6.910576 9.724004 -2.0088305 -2.9044075 0.023698874 -0.83827215 -6.8350244
0.41259167 -8.2514105 -4.363444 -5.9406495 -5.6175833 -0.74404687 -5.9174156 -1.9304471
5.795698 0.7089183 -3.6565783 -5.4751444 -16.674679 -0.41113582 4.780843 6.8711343
2.0463667 1.7970399 3.6662328 -2.5363693 -0.7688039 -4.468208 -1.2144636 -2.011732
-2.4562159 3.9436135 -5.803969 -9.28219 -1.7218568 -5.943764 -2.232012 1.28867
-30.277023 2.3642542 24.45712 -2.6057856 2.9231129 14.030761 0.7609048 10.274096
-2.1552486 -6.82166 6.070525 15.386804 -1.3703487 -0.44922307 -0.824405 -1.7927322
-4.9863205 -1.1304475 -7.204017 -0.31338668 -15.41594 -4.229564 -3.3862982 -1.2357093
-7.0220866 -1.4654901 -1.6375576 -6.2750373 -2.1691954 -0.41008624 -1.4664626 -0.67312974
14.791537 -3.6258922 6.8124223 14.578282 2.783274 9.55801 -2.8725395 -2.553913
-4.274217 3.2842474 -30.716595 -0.32234386 3.5205643 7.1701417 -0.9801568 5.2517486
-20.937077 -5.243102 4.5870633 2.0636017 -0.058209397 -3.5530229 8.934961 8.7062435
-4.953203 1.6482496 -0.9462524 3.0861807 -11.745833 -10.9018755 13.965993 0.07236729
12.160598 -1.0436283 -6.6375895 3.4618285 12.074615 1.3981633 10.528973 3.710701
-4.794178 -12.219943 2.9022512 -29.158092 -0.3366315 -6.1420135 -1.6816826 -6.350043
1.8958298 4.8095913 8.950372 -0.6479602 -5.3576775 -1.5215379 -1.6324419 -3.0395913
1.3143888 4.3284864 3.8684483 3.2557106 3.2936249 0.8855469 12.494551 -0.56470793
-3.1296148 -5.577091 1.4830747 0.2403839 0.22187594 11.800552 -6.742897 8.587806
-4.932696 -3.5214255 -6.79427 0.96527565 -6.5282483 0.8437251 1.8855666 -0.4750611
-5.20951 1.1308382 3.5163362 8.374678 2.5490763 3.9511766 1.9182191 10.911386
-6.513944 -3.7425203 19.067547 4.107199 -0.28248304 2.6832893 -5.8304276 -5.7505674
3.5570505 -1.578468 -0.89510477 1.1622422 -17.866268 -2.4795635 -3.0993476 -0.33902454
-5.164339 -1.4554048 -15.613505 -3.2482564 1.8688844 -12.173384 -6.1010723 -9.166832
2.13162 -0.588538 -0.99119115 -2.4816394 18.292896 -8.454167 -1.8158141 -7.6290307
-12.427082 -4.2831435 -10.206503 -1.0957447 3.199623 4.521654 11.299338 -0.6418328
-0.34946737 1.8666368 -7.835209 -0.065370165 2.2995453 11.477192 9.537803 -0.7216196
-4.381344 -1.8563097 -3.0766277 1.6683705 -5.1392665 -1.2642196 -6.1324887 5.8967204
5.591529 14.158605 3.0329535 1.3440229 -12.392351 -3.5816352 5.4851007 18.652714
7.056635 -0.97507375 -2.2091439 -0.57576805 9.614137 5.8079734 5.3033695 -1.7588174
00000000: 3a7e 5fc1 e96c 03c1 9d0d 2ac1 30ac ba3f
00000010: 4b8b 9dbf 407b 8d3f b48d bc3f 1ec0 70c1
00000020: 3f16 03c1 925b 2ec1 60d7 1a40 2dc0 3a40
00000030: 2850 1b41 e444 65c0 f695 9b40 ee9e 31c0
00000040: 5d86 8b3e 0d8e 043f 268b 51be 8e12 76c1
00000050: 9e6d a440 43ee 2c40 192f 02bf 28eb 1541
00000060: 651e a4c0 7023 ddc0 8595 1b41 ae90 00c0
00000070: d0e1 39c0 2424 c23c 0199 56bf 85b8 dac0
00000080: 373f d33e c705 04c1 55a1 8bc0 cd19 bec0
00000090: 3ec3 b3c0 db79 3ebf 785b bdc0 e418 f7bf
000000a0: 5c76 b940 ab7b 353f 6105 6ac0 6234 afc0
000000b0: be65 85c1 6580 d2be aafc 9840 55e0 db40
000000c0: acf7 0240 6705 e63f 8fa3 6a40 e053 22c0
000000d0: 55d0 44bf 8ffb 8ec0 8b73 9bbf 38c0 00c0
000000e0: a432 1dc0 2a64 7c40 1dba b9c0 da83 14c1
000000f0: ce65 dcbf 5133 bec0 49d9 0ec0 23f3 a43f
00000100: 5837 f2c1 f14f 1740 2fa8 c341 31c5 26c0
00000110: 4814 3b40 ff7d 6041 a8ca 423f b262 2441
00000120: 98ef 09c0 0a4b dac0 be41 c240 5930 7641
00000130: 9667 afbf 9100 e6be 350c 53bf 4078 e5bf
00000140: f08f 9fc0 81b2 90bf 4f87 e6c0 3874 a0be
00000150: b1a7 76c1 9758 87c0 1cb9 58c0 b92b 9ebf
00000160: efb4 e0c0 2e95 bbbf 7d9b d1bf 1bcd c8c0
00000170: 19d4 0ac0 d3f6 d1be 0cb5 bbbf 3b52 2cbf
00000180: 23aa 6c41 9e0e 68c0 5dff d940 a540 6941
00000190: 2921 3240 9ced 1841 b0d7 37c0 5073 23c0
000001a0: 63c6 88c0 1c31 5240 96bb f5c1 410a a5be
000001b0: ed50 6140 cd71 e540 8eeb 7abf 530e a840
000001c0: 227f a7c1 7ec7 a7c0 39c9 9240 0d12 0440
000001d0: fa6c 6ebd ba64 63c0 9af5 0e41 c64c 0b41
000001e0: a480 9ec0 d8f9 d23f 993d 72bf fc83 4540
000001f0: efee 3bc1 156e 2ec1 b574 5f41 4d35 943d
00000200: cf91 4241 9d95 85bf 2267 d4c0 998e 5d40
00000210: 9f31 4141 04f7 b23f ac76 2841 207c 6d40
00000220: e869 99c0 e384 43c1 7cbe 3940 c643 e9c1
00000230: f75a acbe 608b c4c0 6041 d7bf 8d33 cbc0
00000240: 8daa f23f 2ce8 9940 b934 0f41 b8e0 25bf
00000250: 1872 abc0 c1c1 c2bf dbf3 d0bf aa88 42c0
00000260: e43d a83f f682 8a40 a894 7740 905d 5040
00000270: c0ca 5240 34b3 623f aee9 4741 b390 10bf
00000280: 9c4b 48c0 8877 b2c0 64d5 bd3f 3227 763e
00000290: 7233 633e 10cf 3c41 d0c5 d7c0 a767 0941
000002a0: a5d8 9dc0 095f 61c0 a96a d9c0 4e1c 773f
000002b0: 69e7 d0c0 5efe 573f 3f5a f13f 353b f3be
000002c0: 4eb4 a6c0 4ebf 903f a70b 6140 aefe 0541
000002d0: 1124 2340 14e0 7c40 3488 f53f 0995 2e41
000002e0: 3b72 d0c0 7485 6fc0 568a 9841 2d6e 8340
000002f0: 9ea1 90be 03bb 2b40 dd92 bac0 a604 b8c0
00000300: b7a6 6340 3d0b cabf 9625 65bf 5ac4 943f
00000310: 1eee 8ec1 2bb1 1ec0 b65b 46c0 a094 adbe
00000320: 4442 a5c0 b44a babf ebd0 79c1 6fe3 4fc0
00000330: 9b37 ef3f 2ec6 42c1 fc3b c3c0 58ab 12c1
00000340: 766c 0840 6daa 16bf b4be 7dbf 2ed3 1ec0
00000350: da57 9241 4544 07c1 996c e8bf 0521 f4c0
00000360: 54d5 46c1 830f 89c0 d64d 23c1 5d41 8cbf
00000370: a0c6 4c40 64b1 9040 17ca 3441 284f 24bf
00000380: 63ed b2be f4ed ee3f 08ba fac0 cbe0 85bd
00000390: c02b 1340 94a2 3741 d79a 1841 10bc 38bf
000003a0: f833 8cc0 8e9b edbf 78e7 44c0 2a8d d53f
000003b0: df74 a4c0 f3d1 a1bf 593d c4c0 efb1 bc40
000003c0: ceed b240 a589 6241 e91b 4240 f108 ac3f
000003d0: 1247 46c1 8339 65c0 f285 af40 c238 9541
000003e0: f4cf e140 6f9e 79bf 9d62 0dc0 8965 13bf
000003f0: 81d3 1941 ebda b940 34b5 a940 ee20 e1bf

bias f4 [64]
0.04651081 -0.049543176 -0.022510666 0.015670048 -0.03177717 0.045816667 0.050239302 -0.020820593
0.0441205 0.012366613 0.043734834 -0.018202413 -0.0012034948 0.04356721 0.025977347 0.022330994
-0.0041329777 -0.009150613 -0.0249312 -0.014649785 0.009290664 0.0502108 -0.04067278 0.045230236
-0.032562856 -0.05024969 -0.040618896 0.003818515 0.021889767 0.04566689 -0.035815883 -0.04996346
0.005453787 0.04500298 0.017673893 -0.04406187 -0.05019668 -0.03900673 0.036116272 0.03945196
0.04781335 0.0039024057 -0.040153533 0.029886676 0.030950282 -0.037538014 -0.033562876 -0.044175327
0.02310935 -0.043376096 -0.02987138 -0.031031262 0.0071940864 -0.029343639 0.011717519 0.049290106
0.02818823 0.04432392 0.036456425 -0.011329159 -0.026171856 0.009242204 0.039843623 -0.03992878
00000000: 1e82 3e3d c9ed 4abd 4a68 b8bc 795e 803c
00000010: c728 02bd 42aa 3b3d bac7 4d3d f38f aabc
00000020: b3b7 343d 569d 4a3c 4c23 333d 3a1d 95bc
00000030: 96be 9dba 8873 323d 72ce d43c 7def b63c
00000040: ee6d 87bb 74ec 15bc 843c ccbc a705 70bc
00000050: df37 183c d7a9 4d3d 8098 26bd 5743 393d
00000060: a160 05bd 9ed2 4dbd 0060 26bd 0d40 7a3b
00000070: 2b52 b33c 340d 3b3d adb3 12bd 7ca6 4cbd
00000080: aeb5 b23b 0b55 383d d7c8 903c 387a 34bd
00000090: 099b 4dbd 85c5 1fbd a8ee 133d 6198 213d
000000a0: eed7 433d 81bf 7f3b 0878 24bd e7d4 f43c
000000b0: 728b fd3c 76c1 19bd 3a79 09bd 30f1 34bd
000000c0: d24f bd3c 22ab 31bd d3b4 f4bc 4635 febc
000000d0: 5fbc eb3b 1262 f0bc d6fa 3f3c 6ce4 493d
000000e0: 01eb e63c 008d 353d 5553 153d f09d 39bc
000000f0: 5c66 d6bc 9d6c 173c 1133 233d 5c8c 23bd

weight f4 [64]
12.973799 5.05429 4.3495765 4.4517126 13.432124 5.701726 12.12708 12.904087
21.593166 6.756044 7.58389 3.8987677 6.0792966 14.997106 9.570256 10.135935
5.506055 9.199182 3.1813762 5.1162095 2.0527034 5.9500546 2.7017698 14.570834
9.337294 10.284899 7.4475946 21.44509 6.575644 4.997667 6.3681235 4.170873
20.225988 7.5399494 8.569182 3.3714695 5.5964293 15.686202 6.154128 15.995843
3.5210464 3.3038175 -0.3053727 17.20097 9.14755 7.8689504 -4.8734193 8.3359785
44.371555 4.2439623 -4.4478235 7.096365 7.9921775 6.4636965 8.585629 50.403683
6.488907 15.694213 6.2716165 5.0582967 5.875418 52.05243 5.0870337 6.8800364
00000000: ae94 4f41 bebc a140 bb2f 8b40 6e74 8e40
00000010: fbe9 5641 8a74 b640 8508 4241 2477 4e41
00000020: cebe ac41 8331 d840 3aaf f240 6985 7940
00000030: 9989 c240 25f4 6f41 c51f 1941 ca2c 2241
00000040: 9a31 b040 d92f 1341 ab9b 4b40 fdb7 a340
00000050: 7e5f 0340 d966 be40 cce9 2c40 2322 6941
00000060: 8e65 1541 f28e 2441 b252 ee40 8b8f ab41
00000070: ad6b d240 e3ec 9f40 abc7 cb40 cb77 8540
00000080: d3ce a141 4447 f140 5f1b 0941 28c6 5740
00000090: f315 b340 affa 7a41 9eee c440 f9ee 7f41
000000a0: d358 6140 bf71 5340 cf59 9cbe 969b 8941
000000b0: 5d5c 1241 71ce fb40 0df3 9bc0 2b60 0541
000000c0: 797c 3142 8ace 8740 9254 8ec0 6c15 e340
000000d0: ebbf ff40 9ad6 ce40 bd5e 0941 5f9d 4942
000000e0: 20a5 cf40 7f1b 7b41 15b1 c840 91dd a140
000000f0: 6d03 bc40 b035 5042 fbc8 a240 4229 dc40

bias f4 [64]
6.4975104 -1.8288358 5.483359 1.486343 -6.1349945 10.7861185 0.5783589 7.659101
-9.18866 -5.988295 -4.512687 -5.3427377 -5.617828 -0.24646185 3.3906667 -7.197871
-2.7379858 -1.8624376 0.48090026 -2.1012123 -4.5279937 -8.825454 -3.0226204 3.9589882
13.796424 2.6768475 -1.9465066 -3.4855673 -4.9467006 -1.730731 -8.70785 -6.8908777
-14.96133 -4.2203174 -9.0060425 -6.179623 12.072563 -0.96126896 3.4628935 1.1971413
-7.106039 -7.6069546 11.73546 -2.3849463 1.433382 -4.518825 16.034925 1.7627916
-4.3173957 -3.2834854 -2.2204063 -9.062236 -1.8711721 -1.2207345 -5.158932 32.34932
-3.7588766 6.229922 -4.8464394 -6.5628233 -9.801091 31.311338 -2.777993 -4.67737
00000000: 9beb cf40 4b17 eabf ad77 af40 7d40 be3f
00000010: e051 c4c0 f193 2c41 540f 143f 5b17 f540
00000020: c004 13c1 1da0 bfc0 ef67 90c0 b5f7 aac0
00000030: 3fc5 b3c0 7f60 7cbe af00 5940 f654 e6c0
00000040: 293b 2fc0 5b64 eebf 8f38 f63e 437a 06c0
00000050: 53e5 90c0 0f35 0dc1 9d72 41c0 1060 7d40
00000060: 27be 5c41 7851 2b40 2127 f9bf 8913 5fc0
00000070: 5f4b 9ec0 9888 ddbf 5b53 0bc1 1282 dcc0
00000080: 9c61 6fc1 d70c 87c0 c018 10c1 79bf c5c0
00000090: 3829 4141 b915 76bf 0ca0 5d40 ed3b 993f
000000a0: ac64 e3c0 2c6c f3c0 72c4 3b41 f6a2 18c0
000000b0: 1079 b73f 379a 90c0 8747 8041 28a3 e13f
000000c0: 1b28 8ac0 a024 52c0 231b 0ec0 ebfe 10c1
000000d0: 9182 efbf 0741 9cbf f915 a5c0 b465 0142
000000e0: 6f91 70c0 855b c740 0816 9bc0 a602 d2c0
000000f0: 45d1 1cc1 9f7d fa41 a3ca 31c0 04ad 95c0

running_mean f4 [64]
-166.10022 -96.00057 -4185.2285 -302.267 244.71828 -4418.775 -1820.8938 -410.6822
604.8374 705.45544 1615.0848 1665.2896 1685.5444 1226.9469 -214.15524 1387.935
-622.5149 3100.7642 -2470.443 775.0288 -1080.3353 -165.61276 1140.1664 1494.7147
98.34456 -5.5527816 1072.0089 1666.5652 -1211.2858 452.40424 2296.2795 -346.2403
103.297165 -294.05453 -1612.0764 -1053.7197 -6983.8433 882.4068 -1194.0676 690.3898
-760.2568 1314.4537 2097.4404 1486.5386 -879.632 -504.47055 1696.3881 728.5103
-1623.5645 -42.943798 -316.40198 -546.3103 -142.6721 1197.4811 -329.15182 -95.07884
-1314.383 133.82497 28.16104 602.4501 347.96164 379.87332 2146.5176 -39.27886
00000000: a819 26c3 4b00 c0c2 d4c9 82c5 2d22 97c3
00000010: e1b7 7443 3316 8ac5 9a9c e3c4 5257 cdc3
00000020: 9835 1744 265d 3044 b7e2 c944 4429 d044
00000030: 6cb1 d244 4d5e 9944 be27 56c3 ec7d ad44
00000040: f4a0 1bc4 3acc 4145 1767 1ac5 d8c1 4144
00000050: bb0a 87c4 de9c 25c3 5385 8e44 dfd6 ba44
00000060: 6ab0 c442 63b0 b1c0 4900 8644 1652 d044
00000070: 2569 97c4 be33 e243 7984 0f45 c21e adc3
00000080: 2698 ce42 fb06 93c3 7282 c9c4 08b7 83c4
00000090: bf3e dac5 099a 5c44 2a42 95c4 f298 2c44
000000a0: 6f10 3ec4 854e a444 0c17 0345 3cd1 b944
000000b0: 73e8 5bc4 3b3c fcc3 6b0c d444 a920 3644
000000c0: 10f2 cac4 73c6 2bc2 7433 9ec3 dc93 08c4
000000d0: 0fac 0ec3 65af 9544 6f93 a4c3 5e28 bec2
000000e0: 424c a4c4 31d3 0543 cf49 e141 ce9c 1644
000000f0: 17fb ad43 c9ef bd43 4828 0645 8d1d 1dc2

running_var f4 [64]
3.8911555e+06 1.8448854e+06 6.314963e+06 1.1363149e+06 762060.9 6.1608725e+06 3.4936552e+06 4.7816265e+06
166808.19 1.5904905e+06 1.3817434e+06 1.8998409e+06 6.995838e+06 735570.25 2.2332785e+06 410008.0
1.8594168e+06 3.6449055e+06 1.9589049e+06 1.9496946e+06 4.738882e+06 1.0890224e+06 3.6959648e+06 3.405803e+06
441985.06 3.2887245e+06 2.348634e+06 602439.3 1.1677735e+06 1.7706596e+06 1.605367e+06 660077.56
1.1337108e+06 4.030001e+06 2.7858542e+06 1.4109569e+06 1.2711782e+07 569808.44 1.137545e+06 664315.0
1.8456742e+06 385812.22 2.5774495e+06 1.877327e+06 2.0128012e+06 5.900476e+06 2.3646072e+06 1.2559529e+07
3.9055502e+06 1.7431856e+06 4.7802485e+06 426001.75 478225.62 5.1135265e+06 2.285921e+06 314617.78
7.080454e+06 1.1024605e+06 4.7130265e+06 5.206694e+06 1.2055296e+06 8.635081e+06 1.1560909e+06 1.168511e+06
00000000: 4e7f 6d4a ab34 e149 a6b7 c04a d7b5 8a49
00000010: ce0c 3a49 d103 bc4a 5d3c 554a 75ec 914a
00000020: 0ce6 2248 d426 c249 7bab a849 07ea e749
00000030: fc7e d54a 2495 3349 fa4e 084a 0033 c848
00000040: c6fa e249 a677 5e4a c71f ef49 f5ff ed49
00000050: 849e 904a f3ef 8449 7395 614a acdf 4f4a
00000060: 22d0 d748 52ba 484a 6859 0f4a 7514 1349
00000070: ec8c 8e49 1d25 d849 b8f7 c349 d926 2149
00000080: 7664 8a49 c4f8 754a f908 2a4a 673c ac49
00000090: 66f7 414b 071d 0b49 48dc 8a49 b02f 2249
000000a0: 524d e149 8762 bc48 a650 1d4a 782a e549
000000b0: 0ab4 f549 7811 b44a fd52 104a a9a4 3f4b
000000c0: 3960 6e4a 8dca d449 b1e1 914a 3802 d048
000000d0: 3482 e948 6d0d 9c4a 8485 0b4a 399f 9948
000000e0: 0c14 d84a e493 8649 85d4 8f4a 4ce5 9e4a
000000f0: cd28 9349 c9c2 034b d71f 8d49 f8a3 8e49
