net_data_all_0229.pkl (torch, 243062 bytes, 32 tensors)

weight f4 [64, 1, 3]
0	0xbfac133e	-1.3443372
1	0x3fb1bf17	1.3886441
2	0xbf9d2c13	-1.2279075
3	0xbff0724d	-1.8784882
4	0x3f4f21e0	0.80911064
5	0x3f69b5d1	0.91293055
6	0xbe0a6a3e	-0.1351709
7	0x40990fd7	4.7831836
8	0xbefa3e72	-0.48875767
9	0x3f05fe32	0.52340996
10	0x40930690	4.594551
11	0x3e1282fa	0.14307776
12	0xbfd13600	-1.6344604
13	0x3f82336e	1.0171945
14	0x3f7255a9	0.9466196
15	0x3fa812cd	1.3130738
16	0xbfc09a25	-1.5047041
17	0x3f6525e3	0.89510936
18	0x3f86a546	1.0519187
19	0x3e06faa3	0.13181548
20	0x3ff7fc8e	1.9373949
21	0x3f05f52e	0.5232724
22	0xbf9fd77a	-1.2487633
23	0x3fc4bd99	1.5370361
24	0x3e82b344	0.25527394
25	0x3f71c651	0.9444323
26	0x403f2715	2.9867604
27	0x3f8886a0	1.0666084
28	0xbf98a95c	-1.1926684
29	0x3f6e2a4f	0.9303331
30	0xbee88b55	-0.45418802
31	0xc076f1fd	-3.8585198
32	0x3c78b91e	0.015180854
33	0x3c1a0220	0.009399921
34	0x3fae708b	1.3628095
35	0x3ffca400	1.9737549
36	0xc08f9d30	-4.487938
37	0x3f43e29f	0.7651767
38	0x3d1171bc	0.035508856
39	0xbfb19cf6	-1.3876026
40	0x3fb29d29	1.3954211
41	0xbfa35770	-1.2761059
42	0xbf6f33f6	-0.9343866
43	0x40851c65	4.159716
44	0xbddf7da0	-0.10912633
45	0xbf98f7f3	-1.1950668
46	0xbd7abd78	-0.061215848
47	0xc0257cf0	-2.5857506
48	0xbf14f0ce	-0.5817994
49	0xc0b23e32	-5.570092
50	0xbc7ee495	-0.015557428
51	0xbe9fae0f	-0.31187484
52	0x40116deb	2.2723339
53	0x3fa0957f	1.2545623
54	0xbe369e95	-0.17833932
55	0x40090008	2.140627
56	0x3fd60fa3	1.6723522
57	0x3f5a6bc9	0.8532072
58	0x3eb85f20	0.36010075
59	0x402f9fe7	2.7441347
60	0xbf8e99d1	-1.1140691
61	0x3d7882f7	0.060671773
62	0xbffb6a99	-1.9641906
63	0xbdf8899d	-0.12135623
64	0xbf950794	-1.1642938
65	0xc002bfd2	-2.0429578
66	0xbf8ad2ae	-1.0845544
67	0xc0858b61	-4.173264
68	0x3eca8e11	0.39561513
69	0xbe7016e8	-0.23446238
70	0x400a09fa	2.156859
71	0xbf818435	-1.0118471
72	0x3f2724a3	0.6529028
73	0xbf8310fa	-1.0239556
74	0x3fe6080a	1.7971203
75	0xbe9bd729	-0.30437592
76	0xc0b57d10	-5.6715164
77	0x3dd42b1f	0.10359787
78	0x3f70be38	0.9404025
79	0x3eae924e	0.34095997
80	0x40021a4f	2.0328557
81	0xbf19fc35	-0.6015046
82	0xc094ee00	-4.6540527
83	0x3d30c395	0.04315527
84	0x4018072f	2.3754385
85	0xbf8e7e42	-1.1132281
86	0xbf91c8d2	-1.138941
87	0xbfa5b8b3	-1.2946991
88	0x3e5e5c3b	0.2171487
89	0xc003bacb	-2.058276
90	0xbf9e54c3	-1.2369617
91	0x3f1c0885	0.609505
92	0xbfc610cd	-1.5473877
93	0x3f89171f	1.0710181
94	0xc0018705	-2.023866
95	0x3ecb10d8	0.39661288
96	0x4061bce1	3.5271533
97	0xbf3bd766	-0.73375547
98	0xbf873c0e	-1.0565202
99	0x3f563f80	0.83690643
100	0x401fe6ea	2.4984689
101	0x3d438dbf	0.0477426
102	0x3fe05241	1.7525102
103	0xbf8dcca7	-1.107808
104	0x3f451250	0.7698107
105	0xbf8db002	-1.1069338
106	0x3f97b071	1.1850721
107	0xbfdd7c1b	-1.7303499
108	0xbf405419	-0.7512832
109	0x408eefa8	4.466755
110	0xbd45b58f	-0.04826885
111	0x3e445758	0.19173944
112	0x3f9b53b1	1.2134916
113	0x3fff22a4	1.9932446
114	0xbfc55538	-1.5416632
115	0x404b895f	3.1802595
116	0x3f08b64a	0.5340315
117	0x3f8557d0	1.0417423
118	0xbf8e1f2a	-1.110326
119	0x3f43cc33	0.7648346
120	0x3eaf698b	0.3426021
121	0x3f673edc	0.9033029
122	0x40313c08	2.769289
123	0xbf15b400	-0.58477783
124	0xbfb41f2b	-1.4072012
125	0xbfd2cb91	-1.6468374
126	0xbfe5d731	-1.7956296
127	0x3fde6540	1.7374649
128	0x3f7e903a	0.9943882
129	0xbfa7d2cf	-1.3111209
130	0x3e9bfa6b	0.3046449
131	0xc00520e7	-2.0801332
132	0xbfa6f9e5	-1.3045012
133	0xbd9a8b99	-0.075461574
134	0xc04b6b3f	-3.1784208
135	0x3fcc2553	1.594889
136	0xbee7ad39	-0.45249346
137	0xbfb2f90c	-1.3982253
138	0xbe561b4c	-0.2090885
139	0x4109792a	8.592081
140	0xbd8d4720	-0.06898332
141	0xbfa4fc9e	-1.2889593
142	0x3ec7a21b	0.38990864
143	0xc008c991	-2.1373026
144	0x3ecee75c	0.40410888
145	0x3ff47f34	1.9101319
146	0x3fb225eb	1.3917822
147	0x3f13eebf	0.5778617
148	0x3fce355c	1.6110034
149	0x3f998548	1.1993799
150	0xbf4d9f67	-0.80321354
151	0x3fad8018	1.3554716
152	0xbfe6a50d	-1.801912
153	0xbe34e72d	-0.17666312
154	0x409024d7	4.504497
155	0xbe8bc62b	-0.27299628
156	0x3f855bba	1.0418618
157	0xbf992aad	-1.1966149
158	0x3f41c17e	0.7568587
159	0xc088b8a9	-4.2725415
160	0x3f737540	0.95100784
161	0x3cec5a40	0.028851628
162	0x3eea585e	0.45770544
163	0x3ff3e324	1.9053693
164	0x3fe80f08	1.8129587
165	0x3f8b1655	1.086619
166	0xbf761cbd	-0.961376
167	0xc02f3245	-2.7374432
168	0xbf8ce4b5	-1.1007296
169	0x3ff6c929	1.9280139
170	0x3f8e8269	1.1133548
171	0xbe4025f7	-0.18764482
172	0x407d89ea	3.9615426
173	0xbe93ab01	-0.28841403
174	0x3f2bfd3c	0.6718328
175	0x3fe60b61	1.7972223
176	0x3fbabd8e	1.4589097
177	0x3fc2da01	1.522278
178	0xbfb33548	-1.4000635
179	0x3f4fc535	0.8116029
180	0x3f21ba5f	0.63175005
181	0x3ff1c11f	1.8887061
182	0x3fd574a6	1.6676223
183	0xbf8c6048	-1.0966883
184	0x4005d24a	2.09096
185	0x3f4f57c3	0.8099329
186	0x3f11588f	0.56775755
187	0xbe96e903	-0.2947465
188	0x4015828f	2.3360937
189	0x3f2e3258	0.6804557
190	0xbf8416cc	-1.0319457
191	0xc036a36a	-2.853724

bias f4 [64]
0	0x3eb2bd83	0.3491021
1	0x3e3922c8	0.18079674
2	0xbf126865	-0.57190543
3	0x3d56e03f	0.05245995
4	0xbd975c6a	-0.073906735
5	0xbd8dbe9a	-0.0692112
6	0xbd3e40ea	-0.046448626
7	0x3ed25c49	0.41086033
8	0xbf02e73c	-0.51134086
9	0x3de0ad35	0.109705366
10	0x3e9aa628	0.30204892
11	0xbeac1b68	-0.3361466
12	0x3cd456b8	0.025920257
13	0x3eb25282	0.34828573
14	0x3e8fbec3	0.28075227
15	0x3e83d060	0.25744915
16	0xbea2cea0	-0.31798267
17	0xbd931930	-0.071825385
18	0xbdc49d37	-0.09600299
19	0x3dbb78d6	0.09153907
20	0xbef77a94	-0.48335707
21	0xbed34c22	-0.41269022
22	0x3c8906e9	0.016726928
23	0x3eac37b9	0.33636263
24	0xbf01e75d	-0.5074366
25	0x3e3a3e5e	0.18187854
26	0xbee5fb2c	-0.4491819
27	0xbdf1deeb	-0.11810096
28	0xbd6899a4	-0.056787148
29	0x3e2ba422	0.1676183
30	0xbe0d490e	-0.137974
31	0xbe22d42a	-0.15901247
32	0xbe9380ba	-0.28809148
33	0xbe9caa85	-0.30598846
34	0xbe3751ca	-0.17902294
35	0x3f0c0ed6	0.5471014
36	0x3ee67db3	0.45017776
37	0x3eb005b2	0.34379345
38	0xbe32974b	-0.17440526
39	0x3d8bcef9	0.06826586
40	0x3d341d20	0.04397309
41	0x3eb8bf37	0.36083385
42	0xbdf7ced8	-0.12099999
43	0x3eff5318	0.49868083
44	0x3e8d064c	0.27543867
45	0xbefd0f0a	-0.49425536
46	0x3e5f483b	0.21804897
47	0xbdf71e14	-0.12066284
48	0x3f03b739	0.5145145
49	0xbe528553	-0.20558672
50	0x3da2b0c8	0.079438746
51	0xbda0d842	-0.07853748
52	0x3e3b647c	0.1830005
53	0x3d5e8b6c	0.05433218
54	0x3d04d83e	0.032432787
55	0x3f0a92c8	0.5413022
56	0xbd8f74a3	-0.070046686
57	0x3eafc25f	0.3432798
58	0xbeacf9ab	-0.33784232
59	0xbba4d4e0	-0.0050302595
60	0xbecc071f	-0.39849183
61	0xbefb628d	-0.49098626
62	0x3ecce734	0.40020144
63	0x3e75be4e	0.23998377

weight f4 [64]
0	0x3c39e411	0.011345879
1	0x3f5b4b4e	0.8566178
2	0x40fe11dd	7.9396806
3	0x40393250	2.8936958
4	0x3f343c3a	0.704044
5	0xbc210b26	-0.009829318
6	0x3cc20f66	0.023688983
7	0x3f9cae3c	1.2240672
8	0x3e3ae2dc	0.18250602
9	0x3ac695ce	0.0015150846
10	0x3d299341	0.041400198
11	0x3f10ee37	0.56613487
12	0x3fb3fc0c	1.4061294
13	0x3c2b299a	0.01044693
14	0x40e5dd18	7.183239
15	0xbcc7938d	-0.02436235
16	0x3fbe6f09	1.4877635
17	0x3fa585ce	1.2931459
18	0x3eb5e5cd	0.35526887
19	0x3d32422b	0.043520134
20	0xbc9893bd	-0.018625135
21	0xbf2a3af9	-0.66496235
22	0x3f6799e4	0.90469193
23	0x3fb83d2f	1.4393672
24	0x3f5e30e9	0.8679338
25	0x3fe07825	1.7536665
26	0x3cfeae5f	0.031089006
27	0x3faf80e5	1.371121
28	0xbe9cbd7c	-0.30613315
29	0xbc3aaef9	-0.011394256
30	0x3b1e09f4	0.002411482
31	0xbc4d1c62	-0.012518974
32	0xbe852ca4	-0.2601062
33	0x4019b396	2.401586
34	0xbd0ce4f8	-0.03439805
35	0xbb336611	-0.0027374069
36	0x40f42ff9	7.630856
37	0x3f1c03a4	0.60943055
38	0x3ed2aff6	0.41149873
39	0xbbd2890f	-0.00642503
40	0x3de071a9	0.10959179
41	0xbf4e6dbf	-0.8063621
42	0x3f1e97e2	0.61950505
43	0xbc1699b2	-0.009191917
44	0xbcdeed3a	-0.027212728
45	0xbeb7b6d4	-0.35881674
46	0x3fa63476	1.298476
47	0xbc26e7a7	-0.010187066
48	0x3eacda12	0.33760124
49	0x3f7cc224	0.98733735
50	0x393bf088	0.00017923315
51	0x40d1bb22	6.5540934
52	0xbbd4554a	-0.006479894
53	0x3f2e7b3e	0.681568
54	0x3e7b6e33	0.24553756
55	0xbf05cc4c	-0.5226486
56	0x3f070004	0.527344
57	0x40a1e0fc	5.058714
58	0x3f3c7356	0.7361349
59	0xbcbf0e0c	-0.023322128
60	0x3f145e63	0.5795652
61	0x3f35ed16	0.7106489
62	0x3eb06aad	0.34456387
63	0xbf154c19	-0.5831924

bias f4 [64]
0	0xc07469cc	-3.8189573
1	0xc01a4c29	-2.4108984
2	0x3fe27f51	1.7695104
3	0x400a2400	2.1584473
4	0xc010fb57	-2.2653406
5	0xc05f6ad3	-3.490895
6	0xc0bba0ba	-5.86337
7	0xc0180dfe	-2.375854
8	0xc0af915f	-5.4864955
9	0xc05357c7	-3.3022325
10	0xc0aa8bb6	-5.3295546
11	0xc093516b	-4.6036887
12	0xc008ef5b	-2.139609
13	0xc0558092	-3.3359723
14	0x3f1062c2	0.5640069
15	0xc0a0aefc	-5.0213604
16	0xbebe572d	-0.37175885
17	0xbfb3e3f2	-1.4053938
18	0xc0a42f92	-5.130807
19	0xc0a62748	-5.192295
20	0xc0c1e0cf	-6.0586925
21	0xc0884fe2	-4.2597513
22	0xbfe844ef	-1.8146037
23	0xbcf456c5	-0.029826531
24	0xc02549c9	-2.5826285
25	0xbece1610	-0.40251207
26	0xc0bc12ea	-5.877309
27	0xbed3137a	-0.41225797
28	0xc04ea3d7	-3.22875
29	0xc0ad91ec	-5.4240627
30	0xc05bed8c	-3.4363737
31	0xc062f73d	-3.5463402
32	0xc05a4975	-3.4107335
33	0x3f864253	1.048899
34	0xc06cd958	-3.7007656
35	0xc072b71d	-3.7924263
36	0x3fa9957a	1.3248742
37	0xc098eda6	-4.77901
38	0xc023241e	-2.5490794
39	0xc07bc54c	-3.933917
40	0xc0937ca8	-4.608967
41	0xc0061de4	-2.0955744
42	0xc0094b88	-2.145235
43	0xc09d44b6	-4.9146376
44	0xc07e6899	-3.9751341
45	0xc0808cd5	-4.0171914
46	0xbd21926b	-0.039446276
47	0xc07cb51e	-3.9485545
48	0xc07f1507	-3.9856584
49	0xc05be9a7	-3.436136
50	0xc0382aee	-2.8776202
51	0x3ff553cc	1.9166198
52	0xc081a2eb	-4.0511374
53	0xc05b3b03	-3.4254768
54	0xc0829e34	-4.081812
55	0xc02e2f57	-2.7216394
56	0xc060287b	-3.5024707
57	0x3fa31f78	1.2743979
58	0xc080a02c	-4.019552
59	0xc06ad425	-3.6691983
60	0xc076455c	-3.8479834
61	0xbff6806d	-1.9257942
62	0xc054f4b7	-3.3274362
63	0xc03d9b63	-2.962609

running_mean f4 [64]
0	0x41a0d48c	20.103783
1	0xc11377eb	-9.216777
2	0xc3861c43	-268.2208
3	0xc399f373	-307.90195
4	0xc205b6ea	-33.428627
5	0x3fe55bdc	1.7918658
6	0xc3019aeb	-129.60515
7	0xc0e23a35	-7.0696054
8	0xc33d9e53	-189.61845
9	0xc101eccb	-8.120311
10	0x437e238a	254.13882
11	0xc323d9bb	-163.85051
12	0x4307441c	135.26605
13	0x41bb0d9a	23.381641
14	0xc353ee54	-211.93097
15	0x431db163	157.69292
16	0x43b648f0	364.56982
17	0xc330f03e	-176.93845
18	0xc33f86a5	-191.52596
19	0xc328024b	-168.00896
20	0x42f1efd9	120.96845
21	0x431e714d	158.44258
22	0x438db0f0	283.38232
23	0xc2a1a3c2	-80.81984
24	0xc2169bdb	-37.652203
25	0x43b18ec0	355.11523
26	0xc30e269e	-142.15085
27	0x439995cd	307.17032
28	0x4184792f	16.559172
29	0x42f686e2	123.26344
30	0x42976ed2	75.716446
31	0x427e563f	63.584225
32	0xc264f2d4	-57.237137
33	0xc33d2e8a	-189.1818
34	0xc20df7f5	-35.492146
35	0x422d2ac2	43.291756
36	0xc37044e9	-240.26918
37	0xc32263cd	-162.38985
38	0xc31933bd	-153.2021
39	0xc0b640a8	-5.6953926
40	0xc33570d0	-181.44067
41	0x43313c4c	177.23553
42	0xc2917c11	-72.74232
43	0x42ef7e3e	119.74657
44	0x433b114a	187.06754
45	0x4191c0c5	18.219126
46	0xc400804c	-514.00464
47	0x42e68f4d	115.279884
48	0xc33d4d3c	-189.3017
49	0xc32b0028	-171.00061
50	0x41b78e85	22.94459
51	0xc380d2bf	-257.64645
52	0xbd318e94	-0.043348864
53	0x42e6e33a	115.4438
54	0xc350b89f	-208.72118
55	0x42fae099	125.43867
56	0xc2eb4256	-117.62956
57	0xc35ef6fa	-222.96475
58	0xc344f114	-196.94171
59	0xc11c14d3	-9.755084
60	0xc3516d31	-209.42653
61	0xc2e804e7	-116.009575
62	0xc2c735d9	-99.60517
63	0x4316d862	150.84525

running_var f4 [64]
0	0x44e3b641	1821.6954
1	0x45aa9656	5458.792
2	0x453112ee	2833.183
3	0x4535625d	2902.1477
4	0x45917695	4654.8228
5	0x44c0511d	1538.5348
6	0x45316bb5	2838.7317
7	0x44e510a2	1832.5198
8	0x45f5ee23	7869.767
9	0x448d2bbc	1129.3667
10	0x4500ce59	2060.8967
11	0x4575c224	3932.1338
12	0x46922d24	18710.57
13	0x44f2b27a	1941.5774
14	0x452c1f8a	2753.9712
15	0x459a9cdf	4947.609
16	0x45831f94	4195.9473
17	0x4524f7d1	2639.4885
18	0x4560452e	3588.3237
19	0x45b33fc5	5735.971
20	0x4535d414	2909.255
21	0x4575cfb5	3932.9817
22	0x4566ec89	3694.7834
23	0x44972923	1209.2855
24	0x4517099b	2416.6003
25	0x457eab51	4074.7073
26	0x4542f77b	3119.4675
27	0x453fab3f	3066.703
28	0x4607d392	8692.893
29	0x454baef8	3258.9355
30	0x44ffc390	2046.1113
31	0x449e773a	1267.7258
32	0x4671e814	15482.02
33	0x44b3a766	1437.2312
34	0x45133ae4	2355.6807
35	0x4512aca8	2346.791
36	0x45333e57	2867.8962
37	0x4566611b	3686.069
38	0x4587ea0e	4349.257
39	0x4473cb12	975.173
40	0x45ce66f5	6604.8696
41	0x4517a6d4	2426.4268
42	0x45b250e0	5706.1094
43	0x454f9cb3	3321.7937
44	0x45e918e8	7459.1133
45	0x45b92317	5924.386
46	0x460d6420	9049.031
47	0x4557f770	3455.4648
48	0x45038d2f	2104.824
49	0x44bfa7e4	1533.2466
50	0x4518c065	2444.0247
51	0x4519e93e	2462.5776
52	0x44777bc1	989.93365
53	0x468461d2	16944.91
54	0x4548fbd5	3215.7395
55	0x4623d41f	10485.03
56	0x456bab2b	3770.698
57	0x44eeb284	1909.5786
58	0x4507b429	2171.26
59	0x44eae775	1879.233
60	0x452aca84	2732.6572
61	0x453c32b8	3011.17
62	0x4582f8d6	4191.1045
63	0x4616b9ac	9646.418

weight f4 [128, 64, 3]
0	0x3f4ce6d9	0.80039746
1	0x3e1f883a	0.1557931
2	0xbfd1dfda	-1.6396439
3	0x3fee066f	1.8595713
4	0x402445ef	2.5667684
5	0xbf558c52	-0.83417237
6	0xbdd75288	-0.105137885
7	0xbfe84cde	-1.8148458
8	0x3f8c6010	1.0966816
9	0xbeb332c0	-0.34999657
10	0xbf5c94ac	-0.86164355
11	0xbea3df37	-0.32006237
12	0x3fddc9b2	1.7327178
13	0x401c1fb4	2.439435
14	0xbf840d3a	-1.0316536
15	0x3f3d957e	0.7405623
16	0xbdd5bfb4	-0.10436955
17	0xc0105634	-2.2552614
18	0x3f236fee	0.63842666
19	0xbe585541	-0.21126272
20	0xbfcf6414	-1.6202416
21	0x40204f70	2.5048485
22	0xbf00aaf4	-0.50260854
23	0x3ef626c2	0.48076445
24	0x3f9f5474	1.2447648
25	0xbf22026d	-0.6328495
26	0xbf995fac	-1.1982322
27	0x3f3b4dd9	0.7316566
28	0xbdb24447	-0.08704429
29	0xc0092f3c	-2.143508
30	0x3f59a47b	0.850166
31	0xbfda5354	-1.705668
32	0xbdf2144a	-0.11820276
33	0x3f335658	0.70053625
34	0x3d8fddf4	0.07024756
35	0xbfc965e4	-1.573422
36	0x3ffb8177	1.9648885
37	0x403285d1	2.7894175
38	0xbef0ab96	-0.4700591
39	0x3f43023b	0.7617528
40	0x3e6739d6	0.22580656
41	0xbfd1d9c6	-1.6394584
42	0x3fadf5c5	1.3590628
43	0x3f55a590	0.83455753
44	0x3f1ffd8c	0.62496257
45	0x3f3b64f6	0.7320093
46	0xbe8acc00	-0.27108765
47	0xc006155f	-2.0950544
48	0x4070e948	3.7642384
49	0xbfe356c5	-1.7760855
50	0x3fdc9637	1.7233342
51	0x3ee604bc	0.44925487
52	0x4022bc6e	2.5427508
53	0xc019eef3	-2.4052093
54	0x3ebf6e9c	0.37389076
55	0x3f784255	0.96976215
56	0xc00b96ce	-2.1810794
57	0x3f831641	1.0241166
58	0xbef67f6d	-0.48144093
59	0xbfed9861	-1.8562127
60	0x3eabc948	0.33552003
61	0xbdaa5c3e	-0.08318375
62	0xbfc60cb8	-1.5472631
63	0x3eade105	0.3396074
64	0x3e41a221	0.18909504
65	0xc0095ef0	-2.1464195
66	0x405e5386	3.4738479
67	0xbfb3ac10	-1.4036884
68	0x3f7fbb01	0.9989472
69	0xbf400bca	-0.7501799
70	0xbf44f654	-0.76938367
71	0xbf55d039	-0.8352085
72	0x40242b23	2.5651329
73	0xbef75497	-0.48306724
74	0x3ec47879	0.38373163
75	0x407283f7	3.7893045
76	0xc015f408	-2.3430195
77	0x40027b31	2.038769
78	0x3f133048	0.57495546
79	0xbde12c80	-0.10994816
80	0xbfc06475	-1.5030657
81	0x406e25d9	3.72106
82	0xbfe4d06d	-1.7876107
83	0x3fd4884f	1.6604098
84	0x3e876b82	0.2644921
85	0x3f490a1a	0.7853104
86	0xbfffeeba	-1.9994729
87	0x3f325ea2	0.6967565
88	0xbcf57c5b	-0.029966524
89	0xbfe69461	-1.8014032
90	0x3f777321	0.9666005
91	0xbe05a05b	-0.13049452
92	0xbfb4458e	-1.4083726
93	0x3f32a5af	0.69784063
94	0x3eb5d91e	0.3551721
95	0xbfe91211	-1.8208638
96	0x3e6d573e	0.23177812
97	0x3f2cad7a	0.67452204
98	0xc00a72ca	-2.1632562
99	0xbf0d021b	-0.5508134
100	0xbf132c64	-0.5748961
101	0xbdd86e67	-0.105679326
102	0x3f1b5587	0.6067738
103	0xbcf2ed12	-0.02965406
104	0xc00d141d	-2.2043526
105	0x3f4b4e3e	0.79416263
106	0xbe6465b8	-0.22304428
107	0xbfa8e0ff	-1.3193663
108	0x3f6fe2ce	0.9370545
109	0x3f22d75f	0.6360988
110	0x3f71251f	0.9419727
111	0x3ec1a53a	0.3782137
112	0x3d873793	0.06602397
113	0xbfe458b1	-1.7839566
114	0xbeae4121	-0.34034064
115	0x3fed879b	1.8557009
116	0xbfe240ab	-1.7675985
117	0x3f425dab	0.75924176
118	0x3d5006d0	0.050787747
119	0xc0103e4e	-2.2538028
120	0x3ffe9aef	1.9891032
121	0xbd9ccb76	-0.076559946
122	0x3e1324b2	0.14369467
123	0x3f6f6a69	0.93521744
124	0x3f75ea9c	0.9606111
125	0xbffe3965	-1.9861265
126	0x3f85ec7e	1.0462797
127	0x4019b283	2.4015205
128	0xbff87383	-1.9410251
129	0x3f566660	0.8374996
130	0xbd9bfef9	-0.076169915
131	0xbff481f5	-1.910216
132	0x3f71511d	0.94264394
133	0xbf1c1139	-0.6096378
134	0xc00e16db	-2.220145
135	0x3e54cd5f	0.20781468
136	0x3e56de98	0.2098335
137	0xc00f770a	-2.2416406
138	0xbf3476ac	-0.7049358
139	0xbc7d9f0a	-0.015479812
140	0xbe4bd3ba	-0.19904986
141	0x3f7050e0	0.93873405
142	0xbeaa405e	-0.33252233
143	0xbff35ada	-1.9012101
144	0x3fdcc6ba	1.7248147
145	0x3f15d22b	0.58523816
146	0xbf0ce6ed	-0.55039865
147	0x3f8356c8	1.0260859
148	0x3f5fabcd	0.8737152
149	0xbfc871d9	-1.5659744
150	0x3f488683	0.7833025
151	0xbf257141	-0.64625937
152	0xbf94962e	-1.1608331
153	0xbd71b1a2	-0.059007294
154	0xbfa83774	-1.3141923
155	0x3f86b354	1.0523477
156	0x3f4a59c9	0.7904325
157	0xbe7fc46b	-0.24977271
158	0xc010531f	-2.2550733
159	0x3fdbfe39	1.7186958
160	0x401cd0b4	2.4502382
161	0xbec7af7a	-0.39001065
162	0x3ff9ceb0	1.9516201
163	0x3f16b73d	0.5887335
164	0xbeb2557c	-0.34830844
165	0x3e75501d	0.23956342
166	0x3ea8d34a	0.329737
167	0xc007ad07	-2.1199358
168	0x3fa1e3ca	1.2647641
169	0x3fd54cb7	1.6664037
170	0xbfdf9011	-1.746584
171	0xbe0d71fd	-0.13813014
172	0xbfa484fd	-1.2853085
173	0x3f6edb2c	0.9330318
174	0x3fb74101	1.4316713
175	0x3f10a479	0.56500965
176	0xbf96a5e1	-1.1769372
177	0x3f283a20	0.6571369
178	0xbd76f14c	-0.060288712
179	0xc00dfeb4	-2.2186708
180	0x3fb642ca	1.4239132
181	0x3ef9654f	0.48710105
182	0xbf848957	-1.0354413
183	0x3f5ea79c	0.869745
184	0x4025d45a	2.591086
185	0xc002108a	-2.0322595
186	0x4015a0b8	2.3379345
187	0xbe1e0f87	-0.1543561
188	0x3e4a10c7	0.19732963
189	0x3e918834	0.28424227
190	0x3e921df2	0.2853847
191	0xc008858f	-2.1331518
192	0xbdcd9865	-0.100388326
193	0xbe2c1dd9	-0.16808261
194	0xbdbc63a6	-0.09198694
195	0x3ec6d61f	0.38835236
196	0x3f78c06e	0.97168624
197	0x3f7a2f30	0.9772825
198	0x3e4945ff	0.19655608
199	0x3ff10345	1.8829123
200	0xbe870f1b	-0.26378712
201	0xbe7019bc	-0.23447317
202	0x3ea3f4d9	0.3202274
203	0xbfae6ab5	-1.3626314
204	0x3eacaa62	0.33723742
205	0x3f5fe9c7	0.8746609
206	0x3f87e85e	1.0617788
207	0xbf0a62fa	-0.54057276
208	0xbf3f04c3	-0.7461664
209	0x3c8a0138	0.016846284
210	0xbebe1b2d	-0.37130108
211	0x3d8d2a9a	0.06892891
212	0x3ead1218	0.33802867
213	0x3f19fa04	0.6014712
214	0x3e8cdab0	0.27510595
215	0xbd61a2ce	-0.055086903
216	0xbd097110	-0.03355509
217	0xbe1826c9	-0.14858545
218	0x3d4fb294	0.050707415
219	0xbeed96bc	-0.46404064
220	0xbf03d03f	-0.51489633
221	0xbefc8e73	-0.4932743
222	0x3f812d96	1.0092037
223	0x3f5fa1a2	0.8735601
224	0xbebde145	-0.3708593
225	0xbcd0d5c8	-0.025492564
226	0x3d81a599	0.06330413
227	0x3ea6915e	0.3253278
228	0x3f05f616	0.5232862
229	0x3f96d501	1.1783754
230	0x3f94bea8	1.1620684
231	0x3bdd4bcd	0.006753421
232	0xbdcefcbc	-0.10106799
233	0xbe244b6e	-0.16044399
234	0x3fb11a86	1.3836219
235	0x3f135f84	0.5756762
236	0xbfc97f99	-1.5742065
237	0xbd8f9db6	-0.07012503
238	0x3e65e4f7	0.22450624
239	0x3d8d1f6b	0.06890758
240	0x3f6d5d74	0.92720723
241	0x3fd8dae6	1.6941803
242	0xbf4d7171	-0.8025122
243	0xbdcc4938	-0.09974903
244	0x3ed699c2	0.41914183
245	0x3f086947	0.5328564
246	0xbf1de785	-0.61681396
247	0xbde4a33f	-0.11163949
248	0x3e0bd45b	0.13655226
249	0xbf1cd900	-0.61268616
250	0xbda653e9	-0.08121473
251	0xbe09bd7c	-0.13451189
252	0xbe0f276e	-0.13979885
253	0x3d91cd5a	0.07119246
254	0x3e596239	0.21228875
255	0xbdd77b21	-0.10521532

bias f4 [128]
0	0x3d065287	0.032793548
1	0x3d7138d8	0.0588921
2	0xbd247aa9	-0.04015604
3	0xbc83ca9e	-0.016087826
4	0x3d71dd28	0.0590488
5	0x3aea8378	0.0017891964
6	0x3d921ed4	0.07134786
7	0x3d13f6a5	0.03612389
8	0x3d55e8e6	0.052224062
9	0x3d097e28	0.033567578
10	0x3c052e1a	0.008128667
11	0x3c83e52b	0.016100487
12	0xbd1caae2	-0.038248904
13	0xbc952818	-0.018207595
14	0xbcaf6d80	-0.021414518
15	0xbc78df20	-0.015189916
16	0x3d922274	0.07135478
17	0x3c13a600	0.009011745
18	0xbd0792be	-0.03309893
19	0xbd800a55	-0.06251971
20	0x3d0ef2e0	0.034899592
21	0xbb908739	-0.004410651
22	0x3d891784	0.066939384
23	0xbb3a3d00	-0.0028417706
24	0x3d5c3f8f	0.05377155
25	0x3d605510	0.054768622
26	0xbd8cbfdc	-0.06872532
27	0x3c3ee030	0.01165013
28	0x3d864784	0.06556609
29	0xbd357f06	-0.044310592
30	0xbcd9d9f4	-0.026593186
31	0xbcb0104f	-0.021492152
32	0xbcee0aba	-0.02905785
33	0xbaec03e4	-0.0018006531
34	0xbc5c7d7e	-0.013457654
35	0xbcf7ea85	-0.030263195
36	0xbd89bfba	-0.06726022
37	0x3d88e7a2	0.066848055
38	0xbc35a437	-0.011086515
39	0x3d3b0ee9	0.045668516
40	0x3ba62382	0.005070151
41	0xbd413456	-0.047169052
42	0x3bbfd082	0.0058537135
43	0x3c1578b0	0.009123012
44	0x3c20f058	0.009822927
45	0x3c474f5f	0.01216492
46	0xbd7ce2fe	-0.061739914
47	0x3c6be0d0	0.014396861
48	0xbd906a33	-0.07051506
49	0x3d61e799	0.05515251
50	0x3d1dcd03	0.038525593
51	0x3ca5998e	0.020214822
52	0xbd3d609d	-0.046234716
53	0xbd85eb50	-0.06539023
54	0xbd2b624b	-0.041841786
55	0xbc7b49fd	-0.015337464
56	0x3d2b684a	0.041847505
57	0xbc953524	-0.018213816
58	0x3d91f5ea	0.071269825
59	0xbd8f94b2	-0.07010783
60	0x3d0cd055	0.03437837
61	0xbd25bdc2	-0.04046417
62	0x3d5392f4	0.051653817
63	0x3d8f8136	0.07007067
64	0x3a603d56	0.00085540616
65	0xbd0e01ea	-0.034669794
66	0x3d0689e2	0.03284634
67	0xbd076ebc	-0.03306459
68	0x3d5466ba	0.05185578
69	0xbb809fcc	-0.0039252993
70	0xbcbe40be	-0.02322423
71	0x3cc80122	0.024414603
72	0xbc3d9388	-0.011570819
73	0x3cf46a18	0.029835746
74	0x3d82337c	0.06357476
75	0xbc639332	-0.013890075
76	0xbc585f44	-0.013206307
77	0x3d3fa8b0	0.046791732
78	0x3d5dfd2d	0.054196525
79	0xbd191d6e	-0.037381582
80	0xbd0b1a8c	-0.033960864
81	0xbcea75ff	-0.028620718
82	0x3d1a280f	0.03763586
83	0xbd269e52	-0.04067833
84	0x38b28614	8.5126754e-05
85	0x3d438802	0.04773713
86	0xbd1c650b	-0.0381823
87	0xbd23088c	-0.039803073
88	0x3d2ed80b	0.042686503
89	0xbc2cdb0e	-0.010550274
90	0x3ccc588b	0.024944564
91	0xbd53d530	-0.051716983
92	0xbbe3397a	-0.006934342
93	0x3d8de10e	0.069276914
94	0x3b7b5f8d	0.0038356513
95	0x3c202234	0.00977378
96	0x3cd83fa2	0.02639753
97	0xbd7f8644	-0.062383905
98	0x3d8207c6	0.06349139
99	0xbd5cb3b5	-0.05388232
100	0x3a6bba78	0.00089923246
101	0xbc8f8f34	-0.01752434
102	0x3ce7bafd	0.028287405
103	0xbd5a17ed	-0.053245474
104	0x3cd78888	0.02631022
105	0x3bcabc3d	0.0061869905
106	0xbd8a10f1	-0.067415126
107	0xbd81c605	-0.06336597
108	0x3d8f23a8	0.06989223
109	0x3cc69f7a	0.024245966
110	0x3c4a181e	0.012334852
111	0x3d5ae7db	0.05344377
112	0x3d1f6d47	0.038922574
113	0xbd042844	-0.032264963
114	0x3cea3233	0.02858839
115	0xbc6d8526	-0.014497077
116	0x3d1037f4	0.03520961
117	0x3d8828db	0.066484176
118	0xbd6b43ad	-0.057437588
119	0x3ae6bbc5	0.0017603567
120	0xbd74cd8c	-0.059766337
121	0x3d04b681	0.03240061
122	0xbce3cfb6	-0.027809005
123	0xbd612852	-0.054970093
124	0x3d523a06	0.051324867
125	0x3d4b6a32	0.049661823
126	0xbd27aa34	-0.040933803
127	0xbbd348f4	-0.0064479057

weight f4 [128]
0	0x4024cc15	2.5749562
1	0x3ebba709	0.36650875
2	0x40bbeaf2	5.87243
3	0x404842b6	3.1290717
4	0x3c1c7920	0.009550363
5	0x3ef37de3	0.4755698
6	0xbe092be9	-0.13395657
7	0x3df5c23a	0.119999364
8	0x3eeb6ae9	0.45980003
9	0x3cfd4486	0.030916464
10	0x40bffe37	5.999782
11	0xbda8e9a3	-0.08247688
12	0x3fe878de	1.8161886
13	0x3c91b099	0.017784404
14	0x40717f57	3.7733972
15	0x3d15948e	0.036518626
16	0x400ad605	2.1693127
17	0x3e2c1d14	0.16807967
18	0x405154d1	3.2708018
19	0x3f6d7bdf	0.9276714
20	0x3e00e38a	0.125868
21	0x3dfe0770	0.12403762
22	0x3eea8a74	0.45808756
23	0x401740b2	2.3633237
24	0x40a37cdc	5.1089916
25	0x3ce89e8b	0.028395912
26	0x3d4371f1	0.047716085
27	0x402558aa	2.5835366
28	0x3eaeccdc	0.3414067
29	0x405a43ef	3.4103963
30	0x3d1a6e43	0.03770281
31	0x3d6f5177	0.0584273
32	0x3d8a78ac	0.067612976
33	0x40efb5e7	7.490955
34	0x3d9b8e95	0.07595555
35	0x3d58a2c9	0.05288962
36	0x4040341f	3.0031812
37	0x3d60baab	0.05486552
38	0x3e19890e	0.14993688
39	0x4100bb7a	8.045771
40	0x3da88c0d	0.082298376
41	0x407c0cfe	3.938293
42	0xbdaddd25	-0.084894456
43	0x3ddc4ae6	0.10756473
44	0x3f7cb456	0.9871267
45	0x3e329f76	0.17443642
46	0x3db7e8ea	0.08979972
47	0x3f7fa815	0.9986585
48	0x3d77b2d8	0.060473293
49	0x4018579b	2.380347
50	0x3fdcc27b	1.7246851
51	0xbe592b28	-0.21207869
52	0x40022d5c	2.0340185
53	0x3da422a1	0.080144174
54	0x3d49a5d7	0.049230423
55	0x3f3b8791	0.7325373
56	0x3e6f3ae8	0.23362315
57	0x3c0b5efd	0.008506534
58	0x3e250aae	0.16117355
59	0x3c434891	0.011919157
60	0x3e35669e	0.17714927
61	0x40d8bd50	6.7731094
62	0x3c9dc108	0.019257084
63	0x40c0e265	6.027636
64	0x3db6f91b	0.08934232
65	0x3d623190	0.055223048
66	0x405f7a3a	3.491835
67	0x3dfd9518	0.12381953
68	0x408edd09	4.464482
69	0x404e4282	3.2228093
70	0x3fe2498d	1.7678696
71	0xbe62719f	-0.22113656
72	0x3ec75d5d	0.38938418
73	0xbc1b12a0	-0.00946489
74	0x40892cae	4.286704
75	0xbd0e180e	-0.03469091
76	0x40338bc1	2.805405
77	0x3e231b93	0.15928487
78	0x3d8307f9	0.06398005
79	0x3d26b079	0.04069564
80	0x3d812b03	0.06307032
81	0x3e1f1c96	0.15538248
82	0xbd8cbed8	-0.06872338
83	0x3d1950d4	0.0374306
84	0x3ce8ecd8	0.028433248
85	0xbe0a3987	-0.13498507
86	0x3f175521	0.5911427
87	0x3d327402	0.043567665
88	0x40eb3428	7.3501167
89	0x3e70c774	0.23513585
90	0x40e8d541	7.276032
91	0x3dd7965d	0.105267264
92	0x410820d2	8.508013
93	0x3c234180	0.009964347
94	0x3e29025c	0.16504806
95	0x415bdd93	13.741595
96	0x3e7f2425	0.24916132
97	0x3df284b0	0.118417144
98	0x3e89da1b	0.26924214
99	0x3da7a84b	0.08186396
100	0x3ee244e2	0.44193178
101	0x3e91014d	0.28321305
102	0x40dc0979	6.8761563
103	0x3e04706e	0.12933514
104	0x3db42ce9	0.087976284
105	0x3e9ebad4	0.31001914
106	0x40fde6ac	7.934408
107	0x3e8f3ce3	0.2797614
108	0x3d7ad212	0.061235495
109	0x3d1b1a45	0.03786685
110	0x3dcd030c	0.10010347
111	0x400e66f2	2.2250333
112	0x3dcf1208	0.10110861
113	0x3e1a15e6	0.15047416
114	0x3f761fcd	0.96142274
115	0x3fe248f2	1.7678511
116	0x3d13fff6	0.036132775
117	0x400cbfb2	2.1992002
118	0x3ffc0ca4	1.9691358
119	0x3d93be80	0.07214069
120	0x3d4813b7	0.048846927
121	0xbafad07d	-0.0019135621
122	0x405bcd12	3.4343915
123	0x3e025fe6	0.12731895
124	0x3e2d45d1	0.16921164
125	0x3cf8f514	0.0303903
126	0xbdb3524e	-0.08755933
127	0xbe1cd69f	-0.15316246

bias f4 [128]
0	0xc00a39bd	-2.159774
1	0xc0e2dc77	-7.089412
2	0xc02b7977	-2.6792886
3	0xbf1ad008	-0.6047368
4	0xc0ab4845	-5.352572
5	0xc0dcaf2f	-6.8963847
6	0xc0a59e4f	-5.175575
7	0xc0b29cdd	-5.5816483
8	0xc0c7792f	-6.233543
9	0xc0a2c164	-5.0861073
10	0xc0685212	-3.6300092
11	0xc097e6a6	-4.7469053
12	0xbfb8c306	-1.4434516
13	0xc0b539f0	-5.6633224
14	0xbedab39f	-0.42715165
15	0xc09edabc	-4.964201
16	0xc03fead0	-2.9987068
17	0xc0e0b934	-7.022608
18	0xbfaed3c3	-1.3658375
19	0xc04d2360	-3.205284
20	0xc05757fc	-3.3647451
21	0xc0af6f21	-5.4823155
22	0xc0c0a2e2	-6.019883
23	0xc0353388	-2.8312702
24	0xc05b4cde	-3.4265666
25	0xc0db17e5	-6.846667
26	0xc0ce1591	-6.4401326
27	0xbf898c05	-1.0745856
28	0xc0d6f3a3	-6.717241
29	0xbf71489c	-0.9425142
30	0xc0afc970	-5.4933395
31	0xc0b18da6	-5.548541
32	0xc0e265bf	-7.07492
33	0xbf0f5ec0	-0.5600395
34	0xc0afe89c	-5.4971447
35	0xc0af1f21	-5.47255
36	0xbf247247	-0.64236873
37	0xc092fb60	-4.5931854
38	0xc091ea3b	-4.5598426
39	0xc008f9f5	-2.1402562
40	0xc0bd0417	-5.9067492
41	0xc0552ec1	-3.3309786
42	0xc0abc9c4	-5.3683796
43	0xc0b94443	-5.7895827
44	0xc058080f	-3.3754919
45	0xc07d1e86	-3.954988
46	0xc0aeb2e4	-5.459337
47	0xc04190ef	-3.024471
48	0xc0a19388	-5.049259
49	0xc03a6271	-2.9122584
50	0xbe59d12d	-0.212712
51	0xc0b6ba89	-5.7102704
52	0xbf4ffd71	-0.81246096
53	0xc08de827	-4.434589
54	0xc0aa1eb6	-5.316249
55	0xc0a77626	-5.2331724
56	0xc0af0729	-5.469624
57	0xc0b3e58c	-5.621771
58	0xc0b69ae1	-5.706406
59	0xc0b18711	-5.5477376
60	0xc0da5f23	-6.8241134
61	0xbfd712f4	-1.6802659
62	0xc0d4f43c	-6.654814
63	0x3f18a0c6	0.5962032
64	0xc0b661fd	-5.6994615
65	0xc0be972c	-5.9559536
66	0xbf7d48bc	-0.9893911
67	0xc0bf978d	-5.98725
68	0x3c5b18fc	0.013372656
69	0xbfde0984	-1.7346654
70	0xbf593c70	-0.84857845
71	0xc0b9aadd	-5.8021073
72	0xc0e64310	-7.1956863
73	0xc0d8b952	-6.772622
74	0xbf9dacfb	-1.2318414
75	0xc08966b7	-4.2937884
76	0x3f177142	0.5915719
77	0xc0b34341	-5.6019597
78	0xc09cc72a	-4.899312
79	0xc0b958f6	-5.7921095
80	0xc0ab8710	-5.360237
81	0xc0c7cb39	-6.2435575
82	0xc0c45f5f	-6.136642
83	0xc0ab2bb5	-5.3490853
84	0xc0bc3740	-5.8817444
85	0xc0ad85d5	-5.422587
86	0xc0e523c1	-7.1606145
87	0xc0ba17bb	-5.815397
88	0xbffce27e	-1.975662
89	0xc05b47a2	-3.4262471
90	0xbf4a2958	-0.78969336
91	0xc0bbdaef	-5.8704753
92	0xbf980c90	-1.1878834
93	0xc0af3648	-5.475376
94	0xc0c4eddd	-6.154036
95	0x3cc32b82	0.023824457
96	0xc0dfa8b0	-6.9893417
97	0xc0c231f6	-6.0685987
98	0xc0e015f1	-7.0026784
99	0xc0b8779d	-5.764601
100	0xc010cde9	-2.2625678
101	0xc0dd6581	-6.9186406
102	0xc0004718	-2.0043392
103	0xc0b84744	-5.7586994
104	0xc0b8aedb	-5.7713447
105	0xc0dd5db8	-6.9176903
106	0x3ea9c37d	0.33156958
107	0xc07f8f2b	-3.9931133
108	0xc0b77f13	-5.734262
109	0xc0b06e59	-5.51347
110	0xc0babce8	-5.83556
111	0xc02b8d40	-2.6804962
112	0xc0c0f5e0	-6.030014
113	0xc0ee72d8	-7.451519
114	0xc05bc9fa	-3.4342027
115	0xbf8235a2	-1.0172617
116	0xc0ad7368	-5.4203377
117	0xc0340b4c	-2.8131895
118	0xbf258b36	-0.64665544
119	0xc0ac3809	-5.38184
120	0xc0bfe5a7	-5.9967837
121	0xc09e9238	-4.955349
122	0xbfb3687a	-1.4016259
123	0xc0b6d563	-5.713548
124	0xc0ba6f7f	-5.8261104
125	0xc0c68a41	-6.2043767
126	0xc0b0ae72	-5.5212946
127	0xc0aee3e2	-5.4653177

running_mean f4 [128]
0	0x406653ae	3.5988574
1	0x4181d901	16.230959
2	0x40cd0603	6.406984
3	0xc28bb1e9	-69.84748
4	0xc289b1f1	-68.84754
5	0xc0dce179	-6.9025235
6	0x40399025	2.899423
7	0xc22ecc0e	-43.699272
8	0x41e63942	28.777958
9	0xc009ec32	-2.1550412
10	0x419179ca	18.184467
11	0xc009d458	-2.1535854
12	0xc10f6ac7	-8.963569
13	0xc2a82dd8	-84.08954
14	0xc2823176	-65.0966
15	0xc2a9ada1	-84.83912
16	0xc1a8b1e6	-21.086864
17	0xc1928f7f	-18.320066
18	0x415dbe70	13.858994
19	0x41a55695	20.667276
20	0xc2986b6c	-76.20981
21	0xc1bd00d5	-23.625406
22	0x4236ac79	45.66843
23	0x3fe66299	1.799884
24	0x40c398d3	6.1124053
25	0xc264285c	-57.039413
26	0xc14351c8	-12.207466
27	0xc188dfb8	-17.109238
28	0x4121856a	10.095072
29	0x40852af4	4.1614933
30	0xc06a731f	-3.6632764
31	0xc09d7d69	-4.921559
32	0xc1e8fd88	-29.123795
33	0x420e9f77	35.655727
34	0xc1121fce	-9.132765
35	0xc0ed2a40	-7.4114075
36	0xc26f7736	-59.866417
37	0xc2c8e90c	-100.45517
38	0xc1e91926	-29.13728
39	0x4122eb66	10.18247
40	0xc06901f7	-3.640745
41	0xc08a1444	-4.314974
42	0x3f76d4bb	0.9641835
43	0xc22f8252	-43.877266
44	0xc235cc75	-45.449665
45	0xc29124c2	-72.57179
46	0xc186b27b	-16.837149
47	0xc16ce7b3	-14.806567
48	0xc296111a	-75.0334
49	0xc2057cae	-33.371758
50	0xc286dfeb	-67.43734
51	0x408d87fe	4.4228506
52	0xc11efd90	-9.936905
53	0xc2b4686e	-90.203964
54	0xc182c443	-16.34583
55	0xc29f57af	-79.67126
56	0xc11cca33	-9.799365
57	0xc2916619	-72.69941
58	0xc2120a32	-36.509956
59	0xc28990e6	-68.783005
60	0xc1ada3c1	-21.704958
61	0x423f0016	47.750084
62	0xc271881b	-60.382915
63	0xc1b7b4c8	-22.963272
64	0xc25467e1	-53.101444
65	0xc250e026	-52.218895
66	0xc28398c4	-65.79837
67	0xc184a0bd	-16.578485
68	0xc1ae3514	-21.775917
69	0xc25ca3bb	-55.159893
70	0xc2bb64a2	-93.69655
71	0x40800733	4.000879
72	0x41de0ece	27.757229
73	0xc250783d	-52.11742
74	0x40df639f	6.980911
75	0xc205ff27	-33.499172
76	0xc24aff19	-50.74912
77	0xc212813b	-36.6262
78	0xc297c577	-75.88567
79	0xc0112a20	-2.268196
80	0xc11460f3	-9.273669
81	0xc23553cc	-45.331833
82	0xc03662b6	-2.8497748
83	0xc166055f	-14.376311
84	0xc10c12d4	-8.754597
85	0x403e56ed	2.9740555
86	0xc0fb4369	-7.851979
87	0xc01e1dc2	-2.4705663
88	0x416ce21f	14.805205
89	0x41a9c234	21.219826
90	0xc1504893	-13.017718
91	0xc0a0ab81	-5.0209355
92	0x416d31d8	14.824669
93	0xc297d1ea	-75.90999
94	0xc2133232	-36.79902
95	0x4105abe6	8.354467
96	0xc1ac0fb3	-21.507666
97	0xc229be78	-42.436005
98	0xc1797ec1	-15.593446
99	0xc240a1bb	-48.15794
100	0xc0daeb93	-6.8412566
101	0xc173127d	-15.192014
102	0x41463ef2	12.3903675
103	0xc18ccab5	-17.598978
104	0xc250cde7	-52.201077
105	0xc181691d	-16.176325
106	0xc0e18d69	-7.048512
107	0xc122bfa4	-10.171787
108	0xc2697e4b	-58.373333
109	0xc014e6db	-2.3265903
110	0xc093bc25	-4.616717
111	0xc1ace808	-21.613297
112	0xc1e2c22f	-28.344816
113	0xc1660d02	-14.378176
114	0xc2342193	-45.032787
115	0xc2c835b9	-100.10493
116	0xc05b53a6	-3.4269805
117	0xc203df85	-32.96828
118	0xc2c1fd29	-96.99445
119	0xc280a4cf	-64.32189
120	0xc03e0584	-2.9690866
121	0x421885ce	38.13067
122	0x41833161	16.39911
123	0xc2435e05	-48.841816
124	0xc206f143	-33.735607
125	0xc14950d2	-12.5822315
126	0x40752f1c	3.8310003
127	0x40a6d7da	5.213849

running_var f4 [128]
0	0x43a3ca20	327.5791
1	0x44a4171b	1312.722
2	0x445b23d3	876.55975
3	0x45866a71	4301.305
4	0x4521e586	2590.3452
5	0x4443c6e3	783.1076
6	0x44844c20	1058.3789
7	0x44abf7af	1375.7401
8	0x447e9b84	1018.42993
9	0x4478e3f0	995.5615
10	0x437f483e	255.2822
11	0x44ccf137	1639.538
12	0x436260bb	226.37785
13	0x458da08e	4532.0693
14	0x4588b207	4374.2534
15	0x458f4e2a	4585.7705
16	0x444fff0d	831.98517
17	0x4499cda9	1230.4269
18	0x450168d0	2070.5508
19	0x447fb6b1	1022.85455
20	0x458a0fc9	4417.973
21	0x44b7a805	1469.2506
22	0x44d7df66	1726.9812
23	0x4321ba98	161.72888
24	0x43f4cd81	489.6055
25	0x45116ba6	2326.728
26	0x4497490f	1210.2831
27	0x436611d4	230.06964
28	0x44b8d84b	1478.7592
29	0x4399d7ba	307.68536
30	0x4490261d	1153.191
31	0x4477c28c	991.0398
32	0x448a4d9a	1106.425
33	0x44b07043	1411.5082
34	0x4479100d	996.2508
35	0x448233a4	1041.6138
36	0x454986af	3224.4177
37	0x45d518ff	6819.1245
38	0x44ff7daa	2043.927
39	0x443731f8	732.78076
40	0x43f1f772	483.93317
41	0x448b5feb	1114.9974
42	0x44663fd2	920.9972
43	0x44e20528	1808.1611
44	0x457938cb	3987.5496
45	0x455be548	3518.33
46	0x44a2572e	1298.7244
47	0x43d91451	434.15872
48	0x4566dba8	3693.7285
49	0x44b3c3ac	1438.1147
50	0x44f0f695	1927.7057
51	0x4486eb2a	1079.3489
52	0x43bf8027	383.0012
53	0x45b377f7	5742.9956
54	0x44c6c118	1590.0342
55	0x45c45fce	6283.9756
56	0x44906093	1155.018
57	0x453faf4e	3066.9565
58	0x449e0fd7	1264.495
59	0x452b645f	2742.2732
60	0x449e5227	1266.5673
61	0x440b69c8	557.65283
62	0x451b022d	2480.136
63	0x44c09673	1540.7015
64	0x44c425a7	1569.1766
65	0x44baae4b	1493.4467
66	0x4597fed1	4863.852
67	0x448ea44a	1141.134
68	0x444f9414	830.3137
69	0x4576de3a	3949.8892
70	0x4593ba0d	4727.2563
71	0x449c1ced	1248.9039
72	0x448bd5e1	1118.6837
73	0x44fd8a07	2028.3134
74	0x440c97ff	562.37494
75	0x4524c9d7	2636.615
76	0x445af0f3	875.76483
77	0x44936dcc	1179.4312
78	0x4563dae1	3645.68
79	0x4432daae	715.4169
80	0x4483f5d2	1055.6819
81	0x44af7fed	1403.9977
82	0x44984e6a	1218.4504
83	0x44a7510c	1338.5327
84	0x44760675	984.1009
85	0x446f9294	958.2903
86	0x443f0848	764.1294
87	0x4422f36c	651.80347
88	0x44814d7d	1034.4215
89	0x4496dfa3	1206.9886
90	0x42b2f2c6	89.47417
91	0x441931be	612.7772
92	0x43f8f336	497.9001
93	0x45459884	3161.5322
94	0x4494abef	1189.3729
95	0x44966911	1203.2833
96	0x44bf4447	1530.1337
97	0x44960a6a	1200.3254
98	0x44c163ec	1547.1226
99	0x44c4d460	1574.6367
100	0x44327266	713.7875
101	0x44c8fc5a	1607.886
102	0x4458ec24	867.6897
103	0x447d22b6	1012.54236
104	0x44c2c795	1558.2369
105	0x44dd601b	1771.0033
106	0x438035dc	256.42078
107	0x440d9dcd	566.46564
108	0x44fa728d	2003.5797
109	0x446f4362	957.05286
110	0x44162410	600.5635
111	0x444b0d22	812.2052
112	0x446f288b	956.6335
113	0x44140550	592.083
114	0x452a71f6	2727.1226
115	0x45c20a97	6209.3237
116	0x448f572e	1146.7244
117	0x44b82bff	1473.3749
118	0x45b40228	5760.2695
119	0x4513f810	2367.504
120	0x4469e990	935.6494
121	0x446ffc4e	959.94226
122	0x442a1273	680.28827
123	0x44ba4616	1490.1902
124	0x44698ecc	934.2312
125	0x44a295d6	1300.6824
126	0x44454880	789.1328
127	0x4474bc97	978.9467

weight f4 [64, 128, 3]
0	0xbea717f0	-0.3263545
1	0xbf9396e0	-1.1530418
2	0x3fc3b1a0	1.5288582
3	0x3fd13f38	1.6347418
4	0x3e0c2521	0.13686039
5	0x3f873317	1.0562466
6	0xbf2cb081	-0.67456824
7	0x3e6cad63	0.23113017
8	0xbfd727de	-1.6809042
9	0x3f568dab	0.8380992
10	0xbf4d4b61	-0.80193144
11	0x3f22ca3a	0.63589823
12	0x3f7bee8e	0.9841088
13	0x3ea615ce	0.3243851
14	0x3d3dcbad	0.04633682
15	0x3f8704ec	1.0548377
16	0xbf857de4	-1.0429044
17	0x3fdaae16	1.7084377
18	0x3f59a587	0.850182
19	0xbe949ae5	-0.29024425
20	0x3f988034	1.1914124
21	0x3f61afd3	0.8815891
22	0xbe229e42	-0.15880683
23	0x3e80a0bb	0.25122628
24	0x3fcad5a8	1.5846453
25	0x3ea1b652	0.31584412
26	0x3fbacc27	1.4593552
27	0x3f1e0a57	0.6173453
28	0x3f32a9e0	0.6979046
29	0x3f51e811	0.8199473
30	0xc0f4f3c1	-7.654755
31	0xbfc0e84a	-1.5070889
32	0x3f6a596b	0.9154269
33	0x3f2b2c63	0.66864604
34	0xbecbd407	-0.39810202
35	0x3f89e226	1.077214
36	0xbfbb121e	-1.4614904
37	0xbf5ba446	-0.85797536
38	0xbfc165d4	-1.51092
39	0x3f95bac4	1.1697621
40	0xbeaf95dc	-0.3429402
41	0xbe9b2784	-0.30303586
42	0x3f833d61	1.0253106
43	0xbf78cf33	-0.9719116
44	0x3ee1b3d5	0.44082513
45	0x3f8b5141	1.0884172
46	0xbf0a4576	-0.5401224
47	0xbe77fc77	-0.24217401
48	0x3f952664	1.1652341
49	0xbf85dec5	-1.0458609
50	0x3f9b1d77	1.2118367
51	0x3fca4c25	1.5804487
52	0xbf97588e	-1.18239
53	0x3f2e3d28	0.6806207
54	0xbfcc8937	-1.5979375
55	0x3e608341	0.2192507
56	0xbfdaf86c	-1.7107062
57	0x3eb36b28	0.3504269
58	0xbf08a7c9	-0.5338102
59	0x3f49d7f7	0.7884516
60	0x3f80397e	1.0017545
61	0xbfa7d82b	-1.3112844
62	0xbea5c731	-0.32378533
63	0x3f6115bf	0.87923807
64	0xbe1ea89e	-0.1549401
65	0x3e9dcf13	0.30822048
66	0x3fcb759a	1.5895264
67	0x3e2cf0dc	0.16888756
68	0x3f994e52	1.1977026
69	0x3f42fb8a	0.7616507
70	0xbf5bcc16	-0.85858285
71	0x400670b4	2.1006289
72	0xbed904a1	-0.42386344
73	0xbfb64c0d	-1.4241959
74	0xbf5b37cd	-0.8563202
75	0x3fa119d1	1.2586004
76	0x3e0a86a5	0.13527925
77	0x3db8cbfe	0.090232834
78	0x3f4cc330	0.7998533
79	0x3d7e0631	0.062017623
80	0x3f2510f5	0.64479
81	0xbfb312b1	-1.3990079
82	0xbfa4a009	-1.2861339
83	0x3e8f31f1	0.2796779
84	0x3fd417b2	1.6569731
85	0x3db7b1a4	0.08969429
86	0x3fb5eb0b	1.4212354
87	0xc0579675	-3.3685582
88	0xc0198178	-2.3985271
89	0xbf93961f	-1.1530188
90	0x3f441616	0.765962
91	0x3f005aaf	0.5013837
92	0x3f21d63a	0.6321751
93	0x3f357aae	0.7089032
94	0x3ed9e970	0.4256091
95	0x3f3397f3	0.7015373
96	0x3fc7dc9c	1.56142
97	0xbc71dd05	-0.014762168
98	0x3e041df2	0.12902048
99	0xbfe0e460	-1.7569695
100	0xbeb10183	-0.34571466
101	0xc0986629	-4.7624707
102	0x3f513d6d	0.81734353
103	0x3e943541	0.2894688
104	0x3f16dbe5	0.5892928
105	0x3f53a32b	0.8267085
106	0x3ee8baf4	0.45455134
107	0x3f15845f	0.5840511
108	0x3f99d2b4	1.2017426
109	0xbe375024	-0.17901665
110	0x3ef724b5	0.48270193
111	0x3f6fad20	0.9362354
112	0xbfc2d84e	-1.5222261
113	0xbe66a085	-0.22522171
114	0x3f9e6e70	1.2377453
115	0xbf955d67	-1.1669129
116	0x3ec3431e	0.38137144
117	0xbf8ff157	-1.1245526
118	0x3f0767c4	0.5289271
119	0xc0804235	-4.008082
120	0x3f3bdfd1	0.7338839
121	0xbed784cc	-0.42093503
122	0x3f745ce0	0.95454216
123	0xbfe33295	-1.7749811
124	0x3f539b85	0.8265918
125	0xc0307b88	-2.7575397
126	0x3f28086c	0.6563785
127	0xbe844b4a	-0.2583869
128	0x3f76a7b7	0.9634966
129	0x3f6f8179	0.93556935
130	0x3e1b37b1	0.15157963
131	0x3e0627bb	0.13101093
132	0x3f204a96	0.6261381
133	0xbc5e342a	-0.013562242
134	0xbe2260fb	-0.15857308
135	0x3f3f197e	0.74648273
136	0xbfed2078	-1.8525534
137	0xbec9c137	-0.39405224
138	0x3f62077c	0.8829267
139	0x3d74370f	0.05962282
140	0x3ee0e2be	0.4392299
141	0xbedb4e71	-0.42833284
142	0xbf26971a	-0.6507431
143	0x40275257	2.6144006
144	0x3f86d448	1.0533533
145	0xbf48c601	-0.7842713
146	0xbe0fec15	-0.14054902
147	0x3f5f0398	0.8711486
148	0xbfc1fc19	-1.5155059
149	0x40076be0	2.1159592
150	0x3f1f804e	0.6230515
151	0xbfcd92fb	-1.606048
152	0xbe73a456	-0.23793158
153	0x3f6149f3	0.8800346
154	0xbf560f56	-0.8361715
155	0x3fa3db6d	1.2801338
156	0xbf58acb6	-0.84638536
157	0xbf8ee823	-1.1164593
158	0x402048d9	2.5044463
159	0x3f5ecae7	0.87028354
160	0xbff4d028	-1.9126024
161	0xbda87386	-0.08225159
162	0x3f75cf91	0.96019846
163	0xbd74ef68	-0.059798628
164	0x3e7847c6	0.2424613
165	0x3fa40925	1.2815291
166	0xbfc3cee4	-1.5297513
167	0xbef27972	-0.4735828
168	0x3f22cc11	0.6359263
169	0xbf2070b1	-0.62671953
170	0x3f7c3259	0.98514324
171	0x3f8be1ae	1.0928247
172	0x3ef29d4d	0.47385636
173	0x3d34a298	0.044100374
174	0x3f5e8463	0.86920756
175	0xbe2d0539	-0.16896524
176	0x3ea10646	0.314501
177	0x3f8794d5	1.0592295
178	0x3ee17e3f	0.4404163
179	0x3cb08267	0.021546556
180	0x3fd36da2	1.6517832
181	0xbf9e4846	-1.2365806
182	0x3f09f556	0.5388998
183	0xbfc8b4f9	-1.5680228
184	0xbfe72142	-1.8057024
185	0xbf8e3955	-1.1111246
186	0x3f9c3e4a	1.2206509
187	0x3e94591a	0.2897423
188	0x3dc4c0aa	0.0960706
189	0xbfa45f40	-1.2841568
190	0x3e9aa1a7	0.30201456
191	0x3b28ac75	0.0025737558
192	0x3f6c7eec	0.9238117
193	0xbeba55e1	-0.36393645
194	0x3c802de3	0.01564688
195	0x3f7bec15	0.9840711
196	0xbd4c8283	-0.049929153
197	0x3e838a02	0.2569123
198	0x3f7d2207	0.98880047
199	0xbf18b45f	-0.59650224
200	0x3e631b2e	0.22178337
201	0x3f5beebb	0.8591115
202	0x3e6b6c82	0.22990611
203	0x3eed6f17	0.46373817
204	0x3f6ecd98	0.9328246
205	0x3f039e53	0.5141346
206	0xbc5ca008	-0.013465889
207	0x3effdff9	0.49975565
208	0xbef68eac	-0.48155725
209	0xbb25e920	-0.0025315955
210	0x3f116a7a	0.56803095
211	0xc00bf44b	-2.1867855
212	0x3f29c730	0.6631956
213	0x3f40a303	0.75248736
214	0xbf0ea440	-0.55719376
215	0x3f99ce22	1.2016032
216	0x3fd1b3ad	1.6382958
217	0x3e799d37	0.24376379
218	0x3f543e6b	0.8290774
219	0x3fa40fb1	1.2817289
220	0x3da10282	0.078618065
221	0x3f6bdf93	0.9213802
222	0xbf5ec32d	-0.87016565
223	0xbf9fb6ad	-1.2477623
224	0x400f7bc9	2.2419302
225	0x3f941250	1.1568089
226	0xbfa44dcc	-1.2836242
227	0x3f5d57ab	0.86461896
228	0x3f4a34f9	0.7898708
229	0xbf4a0737	-0.7891726
230	0xbf933a60	-1.150219
231	0x3f55edf9	0.8356624
232	0xbdb13c83	-0.0865412
233	0x3e9b61c4	0.30348027
234	0x3f78e4a0	0.97223854
235	0xbf35412d	-0.70802575
236	0xbe62dd2a	-0.2215468
237	0x3f33e7ce	0.7027558
238	0x3f281aa5	0.65665656
239	0x3f5c617e	0.8608626
240	0x3f3a7820	0.72839546
241	0x3ec9da66	0.39424437
242	0x3f229ac4	0.63517404
243	0x3f84f8e1	1.0388452
244	0xbe7294eb	-0.2368962
245	0xbd3e8a8e	-0.046518855
246	0x3f3ac468	0.7295594
247	0xbea62116	-0.32447118
248	0x3f261c72	0.64887154
249	0x3f6e2181	0.9301987
250	0xbe04760b	-0.12935655
251	0x3edd251c	0.43192375
252	0x3f29edc7	0.66378444
253	0xbd657dd0	-0.056028187
254	0x3f1c8a86	0.6114887
255	0x3f4d245e	0.80133617

bias f4 [64]
0	0x3ca10452	0.01965538
1	0x3ccff580	0.025385618
2	0x3a97cd33	0.001158154
3	0x3d074d56	0.033032738
4	0x3d0960b5	0.033539493
5	0x3d50ac31	0.050945465
6	0xbd453e64	-0.048155203
7	0xbb86f80b	-0.0041189245
8	0xbce3d2e2	-0.027810518
9	0x3c017bc7	0.007903046
10	0xbbab6b8a	-0.0052313255
11	0x3c3a6744	0.0113771595
12	0xbd2edc3b	-0.042690497
13	0x3cdd89be	0.02704322
14	0xbbf87bda	-0.0075831236
15	0xbcf3d6f2	-0.02976558
16	0xbd327eaa	-0.043577828
17	0xbbfa34c8	-0.0076356865
18	0x3b004298	0.0019570943
19	0xbba69a26	-0.005084294
20	0x3cfc5db8	0.030806407
21	0x3c780b33	0.015139389
22	0x3ce6357c	0.028101675
23	0xbd451d84	-0.04812385
24	0xbc512663	-0.0127655
25	0x3cab1a6e	0.020886626
26	0xbd00a7b8	-0.03140995
27	0x3d1840da	0.037171222
28	0x3c6032a4	0.013683949
29	0x3d0ef62a	0.03490273
30	0x3d18ac15	0.037273485
31	0x3d224fa4	0.039626732
32	0xbcd34ea2	-0.025794331
33	0xbd04dc0c	-0.032436416
34	0xbce717c5	-0.028209576
35	0xbc7ae9ac	-0.015314501
36	0x3d0ea902	0.034829147
37	0x3c90418e	0.017609384
38	0x3d2c55de	0.042074077
39	0xbd43e26a	-0.047823347
40	0x3c25b1a1	0.010113151
41	0x3d0bdfb2	0.03414888
42	0x3d3610b6	0.04444953
43	0x3bb14a23	0.005410449
44	0x3c9e406a	0.019317824
45	0xbcb91bc1	-0.022596242
46	0xbbe15181	-0.006876171
47	0xbbb3b6ae	-0.0054844236
48	0x3c221889	0.009893545
49	0x3ba0588a	0.004893367
50	0xbd3b7f5a	-0.04577575
51	0xbcb89d60	-0.02253598
52	0x39d07957	0.00039763257
53	0xbbe682bf	-0.007034629
54	0x3d461cee	0.048367433
55	0xbd3603ab	-0.04443709
56	0xbd46e6fb	-0.048560124
57	0xbc770b16	-0.015078327
58	0x3c087aae	0.00833003
59	0xbcc6d6c3	-0.024272328
60	0x3c90165b	0.017588785
61	0x3b808a2e	0.0039227223
62	0x3cfab2bf	0.03060281
63	0xbd1dda0e	-0.03853803

weight f4 [64]
0	0x41082393	8.508685
1	0x3faa92a1	1.3325998
2	0x3e5e96cd	0.21737213
3	0x3f17a2e6	0.5923294
4	0x40467212	3.1007123
5	0x3fdbae59	1.7162582
6	0x3fedd0c0	1.857933
7	0x3fe1b65f	1.763378
8	0x3ecd6ddb	0.40122876
9	0x4037d591	2.87241
10	0x40afa278	5.4885826
11	0x3cd72b38	0.026265725
12	0x3f8d804c	1.1054778
13	0x4040234a	3.0021539
14	0x3eaac60b	0.3335422
15	0x409c817c	4.890806
16	0x3e4ff004	0.20306402
17	0x40a4ca0c	5.149664
18	0x402eb86b	2.730006
19	0x3ff23f91	1.8925649
20	0x409365fe	4.6062
21	0x412c4017	10.765647
22	0x409154e4	4.5416126
23	0x40e253f2	7.072747
24	0x3e94e2b0	0.290792
25	0x409a8778	4.8290367
26	0x3f2bf7bc	0.6717489
27	0x3fdab9be	1.7087934
28	0x3cdc0842	0.026859406
29	0x3ee9d584	0.45670712
30	0x4021f1df	2.5303876
31	0x3f7d5f84	0.9897387
32	0xbdcbdd47	-0.09954315
33	0x40a52a07	5.1613803
34	0x40750ca3	3.8288963
35	0x403076cb	2.7572505
36	0x3ca87a01	0.020565988
37	0x40611087	3.5166337
38	0x40d02720	6.504776
39	0x401305b7	2.2972238
40	0x3fefb34b	1.8726591
41	0x41043111	8.261979
42	0x3ea81048	0.32824922
43	0x3d2175ac	0.03941886
44	0x3f547dca	0.8300444
45	0x408a6099	4.3242917
46	0x4006c0a8	2.1055088
47	0x3eb3b6b7	0.35100338
48	0x40109414	2.259038
49	0x403215cd	2.7825806
50	0x3fc462ab	1.5342611
51	0x3eb49663	0.35270986
52	0x3f048b14	0.51774716
53	0x3f1fbce5	0.62397605
54	0x4060f22b	3.5147808
55	0xbd714cc3	-0.058911096
56	0x410a30a1	8.636872
57	0x3f280183	0.65627307
58	0x4113e3fd	9.243161
59	0x3f499fea	0.78759634
60	0x40b67b71	5.7025685
61	0x40f3184d	7.5967164
62	0x3f23b61c	0.6394975
63	0x4030ff1c	2.7655706

bias f4 [64]
0	0x400dd038	2.2158337
1	0xc0099aff	-2.1500852
2	0xc0c962ad	-6.2932954
3	0xc068c2c8	-3.6368885
4	0xc0182261	-2.3770983
5	0xbf250e40	-0.6447487
6	0xc032c6d2	-2.793385
7	0xc0804c08	-4.009281
8	0xc0b7bea2	-5.7420206
9	0xc0475ac5	-3.1149151
10	0xc0827198	-4.0763664
11	0xc057e3a7	-3.3732698
12	0xbfaaed69	-1.3353702
13	0xbf60a49e	-0.87751186
14	0xc0c51000	-6.158203
15	0xbfa43161	-1.2827569
16	0xc0d2b672	-6.584771
17	0xc0a4dd46	-5.152011
18	0xbfefa5d4	-1.8722482
19	0xbfbbf860	-1.4685173
20	0xbfd6ed03	-1.679108
21	0xc07205d8	-3.7816067
22	0xc00fe7bc	-2.248519
23	0xc0087b31	-2.132519
24	0xc0c02a52	-6.005166
25	0xc09c1074	-4.8770084
26	0xc0c54927	-6.1651797
27	0xc07235e5	-3.7845395
28	0xc07bb75d	-3.9330666
29	0xc0e58f7e	-7.173766
30	0xc0071992	-2.1109357
31	0xbfb5aaf4	-1.4192796
32	0xc09d1c70	-4.9097214
33	0xc04f2c93	-3.2370956
34	0x3ee1b044	0.44079792
35	0xc015c48e	-2.3401217
36	0xc0c6d58b	-6.2135673
37	0xc04f20b8	-3.236372
38	0xbf83ae9e	-1.0287664
39	0xbfe82361	-1.8135797
40	0xc012b9e2	-2.2925954
41	0xbed45787	-0.41473028
42	0xc0c38caa	-6.110921
43	0xc08a6312	-4.3245935
44	0xc0d24450	-6.570839
45	0xbfb99a79	-1.4500266
46	0xc02db755	-2.7143147
47	0xc0a2232c	-5.0667934
48	0xbf681c23	-0.90667933
49	0xc0104332	-2.2541013
50	0xc0e3464d	-7.1023316
51	0xc0d94ca2	-6.7906046
52	0xc1044958	-8.267906
53	0xc0b6bd26	-5.7105894
54	0xbe1b8021	-0.15185596
55	0xc0876090	-4.2305374
56	0xc07fab21	-3.9948199
57	0xc0ef4b71	-7.477959
58	0xc02c87fe	-2.6958003
59	0xc0127ff9	-2.2890608
60	0xc0273086	-2.6123366
61	0x3e90742e	0.28213638
62	0xc08dc73a	-4.4305696
63	0xc0108971	-2.2583888

running_mean f4 [64]
0	0xc28d98f8	-70.79877
1	0xc18acd05	-17.350107
2	0xc01b96c0	-2.431076
3	0xc229d6dc	-42.459824
4	0x40a6c264	5.2112293
5	0xc2406bdc	-48.10533
6	0xc0ee4fa9	-7.447224
7	0xc236211b	-45.53233
8	0xc1b05f76	-22.046612
9	0xc1330a9d	-11.190091
10	0xc2760782	-61.50733
11	0x4292680a	73.2032
12	0xc20671b7	-33.61105
13	0xc1c01a80	-24.01294
14	0xc1ff97b4	-31.949074
15	0x41930708	18.378433
16	0xc1dfc64a	-27.97182
17	0xc1955142	-18.664677
18	0x41a94b81	21.161867
19	0xc277d512	-61.958076
20	0xc0cf623f	-6.480743
21	0x41dc4b56	27.536785
22	0x426fa986	59.91555
23	0xc22ed851	-43.711246
24	0xc215113e	-37.266838
25	0x413b9258	11.723228
26	0xc22503bc	-41.253647
27	0xc211b767	-36.429104
28	0x42487340	50.11255
29	0xc1b9132e	-23.134365
30	0xc18cfa46	-17.622204
31	0xc1ca1b55	-25.263346
32	0xc1ef0ee6	-29.882275
33	0xc18114af	-16.1351
34	0xc26b9123	-58.891735
35	0x41394fb8	11.581963
36	0xc25972cd	-54.36211
37	0x4292842a	73.25813
38	0xc23387c3	-44.88258
39	0x41a692d6	20.821697
40	0x40a70c92	5.2202845
41	0xc2c7eaaf	-99.95837
42	0xc219e360	-38.472046
43	0xc2298ce2	-42.38758
44	0xc2599e05	-54.404316
45	0x424ffd38	51.997284
46	0xc1d4cd48	-26.600235
47	0xc16306b9	-14.189141
48	0x40416edc	3.0223913
49	0xc210ef2d	-36.23357
50	0xc201744d	-32.363575
51	0xc150014b	-13.000316
52	0xc242e5d4	-48.72444
53	0xc24722db	-49.78404
54	0xc191843e	-18.189571
55	0xc20c7afa	-35.120094
56	0x41d8b18e	27.086697
57	0xc209c211	-34.439518
58	0x416a1050	14.628983
59	0xc20b96ce	-34.89727
60	0xc172cf0f	-15.175551
61	0xc2766542	-61.598885
62	0xc236d7b1	-45.710636
63	0xc181e985	-16.239023

running_var f4 [64]
0	0x45845ca7	4235.5815
1	0x4509c71c	2204.4443
2	0x454ed8bc	3309.546
3	0x4552594b	3365.5808
4	0x44a6b729	1333.7238
5	0x4507a2e3	2170.1804
6	0x45372add	2930.679
7	0x44f821a0	1985.0508
8	0x44d2c960	1686.293
9	0x44c30dc5	1560.4303
10	0x44d62de0	1713.4336
11	0x45ae5ab2	5579.337
12	0x4557d721	3453.4456
13	0x45b08da8	5649.707
14	0x45978d43	4849.6577
15	0x44edf024	1903.5044
16	0x45571045	3441.0168
17	0x44b88575	1476.1705
18	0x44e825eb	1857.1849
19	0x45870157	4320.1675
20	0x44b94e6e	1482.4509
21	0x44966e85	1203.4537
22	0x44f38037	1948.0067
23	0x44f93867	1993.7626
24	0x45400ef1	3072.9338
25	0x44a47d11	1315.9083
26	0x459f720e	5102.257
27	0x44c5e9a6	1583.3015
28	0x457420a3	3906.0398
29	0x449fb60c	1277.689
30	0x4521fd65	2591.8372
31	0x453e717b	3047.0925
32	0x45074e6d	2164.9016
33	0x4531e3ba	2846.233
34	0x4658547e	13845.123
35	0x44f96a02	1995.3127
36	0x4638b86f	11822.108
37	0x44bba5e1	1501.1837
38	0x45398cc0	2968.7969
39	0x453eac56	3050.771
40	0x44900154	1152.0415
41	0x4648d15f	12852.343
42	0x45739a05	3897.6262
43	0x45a0d713	5146.8843
44	0x44865e97	1074.9559
45	0x44bde5b1	1519.1779
46	0x45aa8748	5456.91
47	0x45ac3bc3	5511.47
48	0x44bba202	1501.0627
49	0x4580c802	4121.001
50	0x44280f14	672.2356
51	0x44bbfab8	1503.835
52	0x45010db2	2064.856
53	0x4549930e	3225.191
54	0x4528dbe1	2701.7424
55	0x4549734a	3223.2056
56	0x44a76601	1339.1876
57	0x4471ea2a	967.6588
58	0x44b0dae5	1414.8405
59	0x453139dd	2835.6165
60	0x44b81cf5	1472.9049
61	0x451cd843	2509.5164
62	0x4570f078	3855.0293
63	0x453a3299	2979.1624
